ALL MODEL CHECKPOINTS/AASIST_L_ASV.pth (torch, 412013 bytes, 201 tensors)

pos_S f4 [1, 23, 24]
00000000: 1302 af3f aaf8 833f 92d7 be3f 32de 14bf
00000010: da6a 96bd 94e8 82bf 74f0 46bf 0165 3bbe
00000020: 0818 89bf aae5 9abe 5ecb 7ebf 5a75 b6bf
00000030: 74fd 83bf a05a 023e f1fe 0cbc 4956 613e
00000040: 8a9a d9bd a9ee 0fbf f176 4cbd de4c 4fbf
00000050: 5340 6ebf 0d49 debe 27b6 d33e 7fa6 103f
00000060: 5028 773e bdb6 263f da5d d43e 5614 b1be
00000070: 4425 2f3f c67e f03a d618 a63e 210b 4bbf
00000080: 0b2e 8fbf 466a 49bd d2af 3dbf 51f1 6dbd
00000090: b28d d8bf b5ca 9d3f d3df 08bf 4730 683e
000000a0: 66c7 43bf bc3a 493e 517e c5bd 26e7 e03e
000000b0: 678b d63e 0138 0ebf 64a7 dfbe f46c 703d
000000c0: 84d8 1a3e ac4d 233c 47b2 0e3f 2bff 14bf
000000d0: ad37 45bf 6da2 2bbe 2978 ab3e 034a 3abd
000000e0: 4a59 8cbe 9648 cd3e 73dc cabe 049c b3be
000000f0: 9a28 bebe 2067 69bf 59ea 79be ba2d 0cbf
00000100: 8138 953f 5a0e 11be 40b9 98be 8a63 2ebf
00000110: e9cf cdbe b5bc d23d 7a32 2cbf 584f a03e
00000120: bd4d 413f afb1 0cbf c83c fc3e 3554 ae3f
00000130: 9890 82bf 1e82 073f 06ee 063e 2185 be3e
00000140: e7b4 67bf 44df 683f 2f50 49bc 80f7 32be
00000150: c8ad 313f 78b1 ce3e a568 1ebf 82a4 5d3e
00000160: 3d0a 003e dd0c 643e e25c bc3f d07b 00bf
00000170: 32f9 663f 538e 1c3f 90e9 e9be 9662 b33e
00000180: 3078 273c 146d 9a3e 1477 3ebf 9930 38bf
00000190: 8ce7 61bf 14b9 1abf 80a9 203f 1967 5bbf
000001a0: 6e48 c1be 7f40 34be 26ae 69bf da63 87be
000001b0: 28e1 233f 2752 a93f ffe8 383e 37ce c5bd
000001c0: 8865 cbbd 5d5d bbbe 4b30 35bf 5862 e6bd
000001d0: 4f19 dfbf fbb2 76bf bdb1 6ebf db5d 783f
000001e0: 2f6d 94bf 7f55 b9be 82e1 5dba afab 2b3e
000001f0: d1c7 8ebf 355d c2be 2628 36be c015 b63e
00000200: fef6 2fbf fbe4 2fbf a666 6abe c3d8 e33d
00000210: a9e9 2ebf 5b4d ce3d 7e8c 8d3f 2030 a13e
00000220: bb64 96bf f14b 25be cd1b 333f 4f6e 7b3f
00000230: 7367 0ebf db8a 083e 2a35 d03d 3b04 c2bf
00000240: 8dba 343f e472 4cbe a7c6 bcbb 758c 5d3e
00000250: 2def b1bf 6639 5e3f 7daf f9be 277b 033d
00000260: 242b 8e3f 16d3 1bbe 0386 25bf ccf0 a53f
00000270: cf92 473f 6776 0ebf d9f5 d53d 64dd 283e
00000280: f141 d73e f11e ce3e b430 e43b 90bc 683f
00000290: 2434 eebe fa04 9c3e d90e 5f3e 65f1 6a3f
000002a0: 8ac9 49be c0e0 0c3a ab3b 843e c135 0bbf
000002b0: 077a b13e 9708 d3be 77ec 8ebf 84a7 a73e
000002c0: dba8 3f3f 389d bc3e 01fe c73d e46f 173e
000002d0: c758 de3d d9f6 adbe 2f15 d7be 9258 a4bf
000002e0: 5604 51bd 9003 c83d 60d7 223e f126 0ebf
000002f0: 235a 233e 3c4c db3e 8f4c 863f e722 86bc
00000300: 7e94 9cbe 3756 34bf b57f 3dbe 19f6 563f
00000310: ccc6 4ebf 09fb 85bf f2bc 083f 08c1 403e
00000320: e287 3a3f d886 313e b634 81bd 1ebc 0b3f
00000330: 2317 30bf b731 453f 7d54 aebe 40b4 c3bf
00000340: b79f bfbe 45ec 2a3e ddeb 15bf 0099 683f
00000350: 34c1 f93d 4871 ec3f fed4 c63f 5d31 793f
00000360: f438 76be 4522 66be bbcc 393f 04ab 65bf
00000370: eb60 ae3e f81c c93e 0e64 36bf c513 f8bd
00000380: 07a2 0c3e 845d 623d f6e1 69bf 73eb a4be
00000390: 961f 7bbe e4ba 683f e3cf c23e 33aa 023f
000003a0: 4154 53bf dfa3 b93e 7e43 c63d 1f40 c0be
000003b0: af82 133f 762d 073f 756c 0cbf e0ac a0be
000003c0: 2133 983d 951e 0e3f c21e 78be e81a 11bf
000003d0: cfea 75bf 7b7f 50be a412 9ebe e45a afbd
000003e0: ca6b 8b3d 217f 663f 2cec 9abf b702 323e
000003f0: 5303 48bf b676 bdbd b0cf bebf f816 ab3f
1.3672508 1.0310261 1.4909537 -0.58151543 -0.07344599 -1.0227227 -0.7771065 -0.18300249
-1.0710459 -0.30253345 -0.99529064 -1.4254563 -1.0311723 0.12729883 -0.008605705 0.22005571
-0.10625179 -0.5622354 -0.04991812 -0.80976665 -0.930669 -0.43415108 0.4134991 0.5650405
0.24136472 0.65122586 0.41477853 -0.34585828 0.6841624 0.0018348328 0.32440823 -0.79313856
-1.1185926 -0.049173616 -0.74096406 -0.058091465 -1.6918242 1.2327486 -0.5346653 0.22674666
-0.7647613 0.19651312 -0.096432336 0.43926352 0.4190323 -0.55554205 -0.43682396 0.058697656
0.15121657 0.009967249 0.5574078 -0.58201855 -0.7703808 -0.1676118 0.33490112 -0.04548074
-0.27411872 0.4009444 -0.39621314 -0.35079968 -0.37140352 -0.9117298 -0.24405803 -0.54757273
1.1657869 -0.14165631 -0.29828835 -0.68120635 -0.40197685 0.10289899 -0.6726452 0.31310534
0.75509244 -0.54958624 0.49265122 1.3619448 -1.0200377 0.5293292 0.13176736 0.37210944
-0.9051041 0.90965676 -0.012287184 -0.17477226 0.69405794 0.40369773 -0.61878425 0.21644786
0.12503906 0.22270532 1.4715846 -0.5018892 0.9022399 0.6115467 -0.45686007 0.35036153
0.010221526 0.30161345 -0.7440045 -0.71949154 -0.8824394 -0.60438657 0.62758636 -0.8570419
-0.37750572 -0.17602728 -0.91281354 -0.26443368 0.64015436 1.3228196 0.18057631 -0.09658473
-0.09931475 -0.36594668 -0.70776814 -0.11249226 -1.7429599 -0.9636685 -0.9323996 0.9701821
-1.159582 -0.3619804 -0.0008464084 0.16764711 -1.1154729 -0.37961736 -0.17788753 0.3556347
-0.68736255 -0.6870877 -0.2289072 0.111253284 -0.6832529 0.10073348 1.10585 0.3148203
-1.174949 -0.1614225 0.69964296 0.9821519 -0.556266 0.13334219 0.1016639 -1.5157541
0.70597154 -0.19965702 -0.005760986 0.21635611 -1.3901116 0.86806333 -0.487667 0.03209987
1.1106915 -0.15217242 -0.6465761 1.296411 0.7795839 -0.5564942 0.10447282 0.16490704
0.42042497 0.4025798 0.0069638137 0.90912724 -0.46524155 0.30472547 0.21783008 0.9177459
-0.19705787 0.00053740665 0.25826773 -0.54378897 0.34663412 -0.4121749 -1.1165913 0.32744992
0.7486703 0.36838698 0.09765244 0.14788777 0.10856777 -0.33977392 -0.4200835 -1.283953
-0.051029526 0.097663045 0.15902472 -0.5552817 0.15952353 0.428316 1.0492114 -0.016374065
-0.3058204 -0.70444053 -0.18505748 0.83969265 -0.8077209 -1.0467235 0.5341331 0.18823636
0.7286359 0.17336595 -0.06308882 0.5458392 -0.68785304 0.77028984 -0.34048834 -1.5289383
-0.3742654 0.16691692 -0.58563024 0.9085846 0.12195054 1.8472071 1.553375 0.9734095
-0.24045163 -0.2247401 0.7257802 -0.89714074 0.34058318 0.39279914 -0.7124642 -0.12113146
0.13733684 0.055264965 -0.91360414 -0.32210883 -0.24523768 0.9091017 0.3804923 0.51040953
-0.82550436 0.36257836 0.09680842 -0.3754892 0.5762128 0.5280374 -0.5485299 -0.31381893
0.07431627 0.55515414 -0.24230483 -0.5668168 -0.96061414 -0.2036113 -0.30873597 -0.08562258
0.068076685 0.90037733 -1.2103324 0.17383848 -0.7813007 -0.09251158 -1.4907131 1.3366385

master1 f4 [1, 1, 24]
00000000: cbcf 343f 7c01 8bbf 93fc bb3f 6709 27bf
00000010: 5cb7 dfbf dc4d 083f 57fb 893e 222e 8fbf
00000020: 3a3c c2bb 61b8 4dbe df3a 4b3d ce14 a53f
00000030: 0111 89bd cc9a b4bf 3d60 923f 1826 873f
00000040: efaa 4dbf a6b8 bc3e 41b5 4dbe 7004 3ebf
00000050: bec7 8dbf 3779 fabf c228 313f 4ed4 463f
0.70629567 -1.0859828 1.4686455 -0.6524872 -1.7477832 0.53243804 0.2694957 -1.1185954
-0.0059275897 -0.20089866 0.04961669 1.2896974 -0.06692696 -1.410974 1.143562 1.05585
-0.8033895 0.36859626 -0.20088674 -0.7422552 -1.1076581 -1.9568242 0.69202816 0.776677

master2 f4 [1, 1, 24]
00000000: 8cd6 b03f 7cde 3a3e 6c3c b43d e8e3 51bf
00000010: 48de 56bf a2b6 41bf a203 6f3f 53e1 22bd
00000020: ae69 03bf c589 713f cecd a33e 11de c3bd
00000030: 9e25 aabd f2e4 18bf 6895 cd3d eeee 173f
00000040: db45 323f ac83 b23f c3e5 e63e cc38 bd3f
00000050: 56dd 2a3f fb8e 85bf 815c 04bf 60e0 923f
1.3815475 0.18248934 0.08800587 -0.8198838 -0.83932924 -0.756693 0.9336492 -0.039765667
-0.5133313 0.94350845 0.31992954 -0.0956384 -0.08307956 -0.5972434 0.100382626 0.5934895
0.6963784 1.3946433 0.4509717 1.4782958 0.6674398 -1.0434259 -0.5170365 1.1474724

encoder.0.0.conv1.weight f4 [32, 1, 2, 3]
00000000: 6cbf a6be d21f 3ebd 9c2a ffbd db67 d7bd
00000010: f64b b5be db11 093e a435 b8be 7228 7ebc
00000020: d31f 1c3e f11e 0cbe c977 6c3e 6229 783d
00000030: 9210 573e 2e2d 7e3e 4123 4dbe 9d65 063e
00000040: d325 41be 1a76 e63d 191f 4cbe 363f 493e
00000050: 8593 b83d 3a4e 27be 2f0e 49be aa83 fa3d
00000060: de99 b83e 6163 373e ca38 5fbd 09f5 25bd
00000070: 7e82 543e cb4a 9bbe 21d2 d13d b7a1 3cbe
00000080: 5c6c 3d3e 6536 16be 3fad 113c afce 1d3e
00000090: 4fbd 8b3e 6ead 9abd ded2 b63e 03c6 b3be
000000a0: 63ad aebd 33a6 d2be 2999 593d 1495 133e
000000b0: 3fdf 0bbe 2757 363e 4efe 63bd 4c7b b0be
000000c0: ce71 8f3e bac3 5e3e c58e 4a3e 7ba0 953e
000000d0: 52bd 243e 2b9c 4f3e a22c bc3e 9874 7bbd
000000e0: 1c9b 98be c88a 21be 43e2 efbc 1ee6 aabc
000000f0: c9ff ebbc d904 5c3e 000f ed3d 37dc a4be
00000100: 49ad 0ebe cab2 cebd 31c9 8e3e 7130 03be
00000110: 9f09 23be 9fc9 12bc 66d9 34bd b74a e1bc
00000120: f904 cebe 681e b73e 5a35 583e b0eb 46be
00000130: 44cc 82be 7d0c b73c 09a4 833e b3d8 8dbe
00000140: f8ef 0ebe 91ac 323e dd35 7bbe f87c 06bd
00000150: 4154 aabe f1de b23e 05bb 4b3e 1228 c9be
00000160: d6d0 71be 85e7 143e d447 583d bbf2 053e
00000170: 8380 9fbe 718c 4bbe 32ce 433e 347b 97be
00000180: caae d0bd 023c 273e e829 533e 70c1 c53b
00000190: 7cdd e83d 4d27 383e c0f4 f9bd 3cae 25be
000001a0: f938 963e 20d1 963e 8f54 d83d 3d19 86be
000001b0: d740 9fbe 1887 c0be 043d 86bc 4cc2 f0bd
000001c0: 19c7 51bd 87da 703c d715 b33e 2526 b93e
000001d0: ce20 b0bc cc49 05be 6afd 3e3e a2f1 4abd
000001e0: 4af3 c1be 1278 0d3e f58a ca3e 9d80 a4be
000001f0: e20b adbd c83c ce3d cb5a a3be abb5 adbe
00000200: 5090 a23e 8f69 0cbe 2d66 7a3e 5642 493d
00000210: 6a87 9e3d 2f99 98be bb6c eebd b186 763e
00000220: e410 263e 324c 14be b59c 653d 83c5 a13e
00000230: 1238 b5be 4f1a 853e e84c fcbd fcc5 bdbd
00000240: 21be 333e 589d bcbe 59cf aebd 4c18 b33e
00000250: 3872 c43d b746 45be 8d78 8abd dcef a83e
00000260: e470 373e 71ef 8b3e 4da2 81be bc3f e43d
00000270: 0226 ab3d 79af a93d 8f18 cd3e 6575 333e
00000280: 62b3 623e d0e4 363e 484e 3b3e ffbc 3bbd
00000290: 6cb8 abbe 2b8b 6fbe 6cac 5ebe 285a 72be
000002a0: 7700 343e e614 023e 8e27 f1bd 77b5 abbe
000002b0: 6cc5 be3e dc67 923e d05b 3a3e 8473 ca3e
000002c0: ba45 6dbe a40a 71be 9f7a 77be 36d8 abbc
000002d0: d299 b3be c145 ab3e ccea 993c 994a 5d3e
000002e0: 9310 5bbe 34e2 b8bc cec4 473d 9c76 dcbd
000002f0: 79ad c93e 6fab 35be a898 133e d773 87be
-0.32567918 -0.046417065 -0.12459299 -0.10517856 -0.35409516 0.13385718 -0.35978425 -0.015512573
0.15246515 -0.13683678 0.2309257 0.06058634 0.21002415 0.24821922 -0.2003298 0.131247
-0.18862085 0.11252995 -0.19933738 0.1965302 0.09012512 -0.16338435 -0.19634317 0.12232144
0.3605489 0.17909004 -0.054497518 -0.040516887 0.20752904 -0.303305 0.10245157 -0.18421064
0.18498367 -0.14669187 0.008891403 0.15410875 0.27292868 -0.0755261 0.35707754 -0.35112008
-0.08529165 -0.41142425 0.05312458 0.14412338 -0.1365938 0.17806683 -0.055662446 -0.34469068
0.28016514 0.21754351 0.19781025 0.29224 0.16087845 0.20274417 0.36752802 -0.06139049
-0.2980584 -0.15775597 -0.029282695 -0.020861682 -0.028808491 0.21486224 0.11575127 -0.3219926
-0.1393329 -0.10092695 0.27887872 -0.12811448 -0.15921639 -0.008959203 -0.04415264 -0.027501447
-0.4023817 0.35765386 0.21114102 -0.19425845 -0.25546467 0.022344822 0.25711086 -0.2770439
-0.13958728 0.17448641 -0.24532266 -0.032834023 -0.33267406 0.34935716 0.19895561 -0.39288384
-0.23614821 0.14541443 0.052802876 0.13080876 -0.31152734 -0.19877793 0.19121626 -0.29586184
-0.10189588 0.16331485 0.20621455 0.0060350224 0.1137037 0.17983742 -0.122048855 -0.16179746
0.29340342 0.29456425 0.10563003 -0.2619113 -0.31104156 -0.37603068 -0.016386516 -0.11755809
-0.051215265 0.0147005385 0.349776 0.36161914 -0.021500017 -0.13016433 0.18651357 -0.049546845
-0.37880927 0.13815334 0.3955914 -0.32129374 -0.08449532 0.10070187 -0.31905207 -0.33927664
0.31750727 -0.13712142 0.2445304 0.04913553 0.07740672 -0.2980437 -0.116418324 0.24074818
0.16217381 -0.14482191 0.05605765 0.31596002 -0.3539434 0.25996634 -0.12319356 -0.09266278
0.17552997 -0.36838794 -0.08535642 0.34979475 0.09592098 -0.19265257 -0.067612745 0.32995498
0.17914158 0.27331117 -0.25319138 0.11144969 0.08356859 0.08285422 0.400578 0.17525251
0.22138742 0.17860723 0.1829158 -0.045834538 -0.3353914 -0.23392932 -0.21745461 -0.23667204
0.17578302 0.12703285 -0.117751226 -0.33536884 0.37259996 0.28594863 0.18199086 0.39541256
-0.2317113 -0.23539215 -0.2416787 -0.02097712 -0.35078293 0.33451656 0.018788718 0.21610488
-0.21393041 -0.0225688 0.048771672 -0.107648104 0.39390162 -0.17741178 0.14413702 -0.26455566

encoder.0.0.conv1.bias f4 [32]
00000000: f6c5 fdb8 e129 8038 92f9 2fb8 8eca 3839
00000010: 55e6 5a3a 625e 2dba 5adc 44ba 516c e5b9
00000020: dbc2 9a39 e1e8 39b9 0349 c438 99b5 013a
00000030: 0807 3ab9 c4f4 5b37 02ab f5b9 154b 8fb9
00000040: 6b7a fbb8 4903 54ba 4355 6238 7c51 d937
00000050: e752 c937 b14a 3bba ff5b 8137 b36a 5aba
00000060: bcd8 77b8 b058 6739 d93f f837 b1eb db39
00000070: b4ae 6239 6d97 e4b8 dc5a 6f36 d967 8039
-0.00012100853 6.111316e-05 -4.195568e-05 0.00017623065 0.0008350362 -0.00066134904 -0.00075096416 -0.00043758986
0.00029518348 -0.00017729729 9.359608e-05 0.00049480196 -0.00017740962 1.3110406e-05 -0.00046857452 -0.00027331026
-0.00011991415 -0.0008087648 5.3962005e-05 2.590636e-05 2.3999672e-05 -0.0007144614 1.5420837e-05 -0.00083319395
-5.909124e-05 0.00022062915 2.9593635e-05 0.0004194654 0.00021618122 -0.000109000925 3.5666662e-06 0.00024491435

encoder.0.0.bn2.weight f4 [32]
00000000: 74cc 773f b051 793f 0266 613f 920b 883f
00000010: d62a 6d3f de33 693f 9ec6 823f 3f8d 8b3f
00000020: cb5c 623f fe99 833f bd3c 803f f691 803f
00000030: 7241 833f c4dd 803f 378d 823f 5331 813f
00000040: e63c 663f 2619 5f3f c518 7e3f a78e 7a3f
00000050: fca6 823f eae8 883f 1b6a 813f 2109 773f
00000060: 9916 743f d062 843f 438a 823f 982f 6a3f
00000070: cae1 693f 0cf2 803f 4fef 833f 7a29 713f
0.96796346 0.9739027 0.88046277 1.0628531 0.9264349 0.9109477 1.0216863 1.090248
0.8842284 1.028137 1.0018536 1.0044544 1.0254347 1.0067677 1.0199345 1.0093178
0.89936674 0.8714775 0.99256545 0.9787392 1.020721 1.069608 1.0110506 0.96498305
0.9534698 1.0342655 1.0198444 0.9147887 0.9136015 1.0073867 1.0307406 0.94203913

encoder.0.0.bn2.bias f4 [32]
00000000: 6fe4 b8bc 0ba4 f43c cb77 203e fefa 92bd
00000010: 667b 973e 09af 343e 8539 42be 98a9 81bd
00000020: bb63 6d3d 73cd 33bd 266c aabd a4ba da3c
00000030: 9152 f1bd e1b4 163b df3a 70bd 4784 05bd
00000040: c87d 683e 62d4 d33d 399e f23c bf72 15be
00000050: 5478 e8bd 5279 0ebe 547b 48be 0d64 e53d
00000060: d722 debd b615 5bbe 144f 23be 4586 18bc
00000070: d963 a03e d729 0dbe 98fa 08be 464f eabc
-0.022569863 0.029863378 0.15670697 -0.07176779 0.29586333 0.17644896 -0.18967254 -0.063311756
0.05795644 -0.043897104 -0.08321409 0.026700325 -0.117833264 0.0022995996 -0.058649894 -0.032596853
0.22704232 0.10343243 0.029616462 -0.14594553 -0.11351076 -0.13913468 -0.19578296 0.11200724
-0.10846489 -0.21395001 -0.15948135 -0.009309356 0.31326178 -0.13785492 -0.13376844 -0.028602254

encoder.0.0.bn2.running_mean f4 [32]
00000000: ea7f 5bbe c5ec 8fbc 68ae a63d 8db3 20bd
00000010: a1e0 bb3d 0944 fd3c 5c0f 9ebd d54f 30bd
00000020: a04b b43e 4fb4 55bd 952b 8bbd a332 babc
00000030: a574 8bbd 012d 8cbd 4194 90bd 97f0 e6bd
00000040: b74e 173e 007c 1d3d 8bb0 64be b6d2 393e
00000050: 467f 20bd 87f4 46bd 3f6f aabc 0cec 7c3c
00000060: 7db1 d3bb 10f9 183e f15e 983e d115 6cbe
00000070: 62c5 073e 873a 24bd ef4a a4bb 0559 2a3c
-0.21435514 -0.017568955 0.08138734 -0.039233733 0.09173704 0.03091623 -0.07717773 -0.043044884
0.35213947 -0.05217391 -0.06795422 -0.022729224 -0.068093576 -0.06844521 -0.07059527 -0.112763576
0.14776121 0.038448334 -0.22332971 0.18146786 -0.039183877 -0.048573043 -0.020805 0.015437137
-0.0064603672 0.1493876 0.29759935 -0.23055197 0.1325889 -0.04009488 -0.0050138156 0.0103972005

encoder.0.0.bn2.running_var f4 [32]
00000000: db76 bf3e f038 b63c 0582 793d 1f0d d33c
00000010: 2ce6 cd3d 7ebd 473c dd8a 293e 6322 f33c
00000020: a6c4 7c3f 87d1 083d 081b ad3d aaa2 253c
00000030: 20ef 973d d4fe 493d aae4 bc3d 41d0 dc3d
00000040: 76fc 373e 5dc4 9b3c 6707 d83e 239c 983e
00000050: 0d91 5a3d af95 4a3d 1736 063d efa6 7e3c
00000060: e61d 053d df58 3e3e 6b12 353f 481e e43e
00000070: e5f0 1b3e 4402 783d 4497 a43b fc64 e63c
0.37395367 0.022243947 0.060915012 0.025763093 0.100536674 0.012191175 0.16556878 0.029679483
0.9873756 0.033402946 0.084524214 0.010109583 0.07418656 0.04931529 0.09223302 0.10781909
0.179674 0.019014532 0.42193148 0.29806623 0.053360987 0.049459156 0.032766428 0.01554273
0.032499216 0.18588589 0.7073123 0.44554353 0.15228613 0.060549036 0.005022915 0.028124325

encoder.0.0.conv2.weight f4 [32, 32, 2, 3]
00000000: 81ea c9bc 9eac b03d a121 073d d245 933d
00000010: 875d 7dbd b8ad 6ebd 010b 123d 6e0b 15bd
00000020: 3f12 4abd b5f8 003d 4c30 1e3d ae10 aabd
00000030: a66d 013d cbb8 bfbc ad09 603d f319 25bd
00000040: fdf5 98bd 5015 02bd 51ea 83bc c794 10bd
00000050: bf35 6bbb 14fa 14bd b4fa 98bc 4ca4 adbb
00000060: 9625 19bc afba 9ebd 73f6 3d3d 392c 36bd
00000070: 049e 6b3d 64ca 973d d0dc 6fbc bdb7 f23b
00000080: 1f65 0d3d 3e4d d33a 3ec8 62bd c1a9 a43c
00000090: aa4b 023d ca3f 58bd 8089 21bd 8623 c9bc
000000a0: 767b 623c 23f9 4dbd ec09 dbbc 88f2 22bd
000000b0: 0bb6 b9bc 39e6 dbbc 83b8 bfbc a5a1 503d
000000c0: 626a 303c 7873 793d 9af5 853d bc17 cd3b
000000d0: b959 0bbd e7b6 273d 27f8 e739 655f 0b3d
000000e0: cf68 71bb 08ba 3a3d 91b5 073a 9fb8 51bc
000000f0: 7471 5ebd d7e9 683d d26e 853c 50bc 9f3c
00000100: 6317 e23c 9219 00bc 408a 91bc 1dd1 f7bc
00000110: cc77 743c 74ee 0d3d 079e d9bb 8b79 34bc
00000120: a658 86bc 4827 313d 2456 713d d296 4a3d
00000130: d6b5 7ebb 0655 613b 140b bd3d 4261 1e3d
00000140: afe2 003c 6b36 3e3d 8dcb 0a3d bc98 40bc
00000150: ef63 d33c 6aad 053d 4df6 afbc 0b09 15bc
00000160: e580 7e3d 1eaf 2b3c 8f56 39bd bbc0 633d
00000170: 4d7b 123d 793f 123d a491 b23a 0d6c 063d
00000180: 5d2a ab3c e1a3 903d 5470 2d3d dfcf eabc
00000190: 7f99 263d 8f9b 78bb 0a5c 533d 75f3 99bc
000001a0: a9ff 47bc fc51 813d d5a7 733c b54f a7b9
000001b0: 66e3 033d 1e8a d43c 77cc ad3c 75d0 63bd
000001c0: 4d25 993d 7f58 993d 2abb 84bd cec8 323c
000001d0: 7cc9 7f3d c42f 4ebb 7378 aa3c f14c 353d
000001e0: 3e66 523d 73c3 c23c 7fe2 36bd 93d4 19bd
000001f0: 13a0 1fbd b12d d9bc b781 57bc 75c0 943d
00000200: d638 063d 3bf9 28bd e718 17bd 0cbe 963b
00000210: eb8f 8fbc 8086 963b 2528 a7ba 042b 82bc
00000220: d4e2 5cbc d2f7 ebbc 91a3 9abd 650f 673b
00000230: 519b 58bd e704 bcba 9845 5cbd 3d7e f2bc
00000240: d53d 6c3c db9d b83a 8c6e 4d3d 2c9a f53c
00000250: c3e9 8c3d 5241 74bd 8f12 96bd a4b6 b53c
00000260: 1e32 0e3d 4eda 883c 1442 81bd 0ed3 413d
00000270: 383e 91bd 6fc3 723c 26e1 f8bc a7e6 25bd
00000280: 807b 313d b522 3e3d 42de 263d 41f9 253d
00000290: aefd 9a3c 1292 2fbd 2649 a13c 479b 893d
000002a0: 6285 f13c e83c 70bd cda5 f8bb 191b d53c
000002b0: f19c 93bb 53aa aabc 471f c6bd 8767 33ba
000002c0: fe0e cb3c bed2 a2bd f3b9 2e3b c9c9 f03c
000002d0: 0bde 6cbc 770b d73d 7cd4 44bd df6b 263d
000002e0: 6bbe 08bb 4a2f 083b c098 2e3c 5377 9a3d
000002f0: c64a a63c 32f7 f0bc a399 543c d7b3 75bd
00000300: 86af 02bd d915 80bb f384 7f3d f6ae 4538
00000310: d50e 3dbc afcc 183d 99a4 b03b facd 15bd
00000320: 2cb4 c0bc d198 623b 8ea5 6bbd 01ac 223d
00000330: 1c0e 4ebc f216 babc 5e37 913d a8cf 4fbd
00000340: 9095 97bc 673c 813d 6eb5 26bd ccfe 54bd
00000350: cd36 853d fcf2 b3bc 0d75 d33c 1f91 203d
00000360: d211 1e3c a59c 80bd 057b 86bd 0b9a 81bd
00000370: 0fe3 8abd 3a4f f5bc 4bdf 613b a1d3 8dbd
00000380: 75db 9bbd d10a 423c cf84 28bd 4638 873c
00000390: e692 b03c f6c5 a13d 728a 5dbc 0a29 48bd
000003a0: 6959 15bd 8e0e 58bd e075 9cbb 1a0c b33c
000003b0: 4dcf d23c 24aa 183a 4ebc a73c ae61 ea3b
000003c0: 74cb c3ba fdb6 f8bc f127 7b3c ab69 723c
000003d0: 1e91 91bc e8ff 5f3d c78f 07bd 898c 573d
000003e0: 17bd 3fbc 4fb9 2a3d 89e1 733d 12a7 463d
000003f0: f8ad 0b3d 3648 18bd beb1 e8bc 4e77 5abc
-0.024647953 0.08626674 0.032991055 0.071910515 -0.061856773 -0.05827114 0.035655025 -0.036387853
-0.049333807 0.031487186 0.03862028 -0.08303963 0.03159871 -0.023403546 0.054696728 -0.04030795
-0.074687935 -0.031758606 -0.016102942 -0.035298135 -0.003589019 -0.036371306 -0.018674232 -0.0052991267
-0.00934734 -0.07750451 0.04637761 -0.044475768 0.057523742 0.0741165 -0.014640048 0.007407157
0.034520265 0.0016121042 -0.055366747 0.020100476 0.03181044 -0.05279521 -0.03943777 -0.024553072
0.013823381 -0.050286423 -0.02673813 -0.039782077 -0.022669813 -0.026843177 -0.023403412 0.050935406
0.010767551 0.060901135 0.065409854 0.006258933 -0.034021113 0.040945914 0.0004424464 0.034026522
-0.0036836152 0.04558757 0.0005176897 -0.012800365 -0.054307416 0.056863632 0.016288195 0.019498974
0.027599042 -0.007818596 -0.017766118 -0.03025108 0.01492114 0.034651235 -0.006641153 -0.011015306
-0.016399693 0.043250352 0.05892004 0.04946024 -0.0038865707 0.0034382953 0.092306286 0.03866697
0.007866546 0.046438616 0.033885527 -0.011755165 0.025804488 0.032636084 -0.02147975 -0.009096394
0.062134642 0.010478763 -0.045248564 0.055603724 0.03576212 0.035705063 0.0013623727 0.03281789
0.020894224 0.070625074 0.042343453 -0.028663574 0.04067373 -0.0037934517 0.051601447 -0.018792847
-0.01220695 0.063144654 0.014871557 -0.00031912109 0.032199286 0.025944766 0.02121566 -0.055618722
0.07477818 0.074875824 -0.06481011 0.010912133 0.06244801 -0.0031461576 0.020809388 0.04426283
0.051367037 0.023774838 -0.044649597 -0.037556242 -0.038971018 -0.026511045 -0.013153485 0.07263271
0.032769047 -0.04125331 -0.036888983 0.004600292 -0.01752468 0.0045936704 -0.0012753053 -0.015889652
-0.013481814 -0.028804693 -0.07550729 0.0035256979 -0.052882496 -0.0014344723 -0.053777307 -0.02960121
0.014419039 0.001408513 0.050154254 0.029980741 0.06880524 -0.059632607 -0.073277585 0.022181816
0.034715764 0.016705658 -0.063114315 0.047320418 -0.070919454 0.014817103 -0.030380797 -0.04050317
0.04333067 0.046419818 0.040739305 0.04052091 0.018919792 -0.042863913 0.0196882 0.0671907
0.029482547 -0.058651835 -0.0075881244 0.026013898 -0.004504793 -0.02083317 -0.096739344 -0.0006843735
0.024787422 -0.07950352 0.0026661127 0.029393094 -0.014457236 0.105002336 -0.048054203 0.040630218
-0.002086545 0.002078014 0.010656536 0.075422905 0.020299327 -0.029414747 0.012976083 -0.05998596
-0.031905673 -0.0039088544 0.06238265 4.7131405e-05 -0.011539181 0.037304576 0.0053907153 -0.036573388
-0.023523413 0.003457595 -0.057530932 0.039714817 -0.012576606 -0.02271602 0.070906386 -0.050735146
-0.018503934 0.06310349 -0.04070037 -0.052000806 0.06504593 -0.02196645 0.02581265 0.0392009
0.009647803 -0.062798776 -0.06566433 -0.063282095 -0.06781589 -0.029945005 0.0034465368 -0.06925131
-0.076102175 0.011843399 -0.04114228 0.016506325 0.021554422 0.07899086 -0.0135217775 -0.048867263
-0.03646222 -0.052748255 -0.004774794 0.021856356 0.025733614 0.0005823693 0.020475533 0.0071527576
-0.0014937953 -0.030360693 0.015329347 0.014795701 -0.017769393 0.05468741 -0.0330961 0.05262426
-0.011702797 0.04168063 0.05954126 0.048499174 0.034101456 -0.03717824 -0.028405067 -0.0133341085

encoder.0.0.conv2.bias f4 [32]
00000000: 0fb6 713b 8450 1a3d d471 b0bb 9aaf 8a3b
00000010: c338 bbbc 1b25 ec3d 1330 2ebd 3e89 213d
00000020: ba3e 5bbd 9e25 b3bd 2005 00bc 8b83 aa3a
00000030: 8842 c63d 0149 19be 6076 1dbe 90fa 703d
00000040: 2660 983c 914a f63a 318a 4bbd e756 0d3c
00000050: 9814 d43d 5027 873c d8c0 55bd 02bf 873b
00000060: 2e54 5d3c b143 d6bc a830 333d 482a 61bd
00000070: 461b bc3b 1c86 723d 7303 94bd 41ba 913d
0.0036882197 0.037674442 -0.005384663 0.004232359 -0.022854215 0.11530515 -0.042526316 0.039437525
-0.053526618 -0.08747409 -0.007813722 0.0013009174 0.096806586 -0.14969255 -0.15377188 0.058832705
0.018600535 0.0018790533 -0.049692336 0.008626676 0.103554904 0.016498238 -0.052185863 0.004142643
0.0135088395 -0.026155325 0.043747574 -0.054971963 0.005740556 0.059209928 -0.072272204 0.07115603

encoder.0.0.conv_downsample.weight f4 [32, 1, 1, 3]
00000000: 486c 123e 1ee0 b0bc 9be8 26be 8a31 2abe
00000010: 93d7 993e 3aa1 9fbe 534b c13e db25 253e
00000020: 4348 bf3d 409f 42be e943 f0be d0e6 c8be
00000030: e662 06bf 9c0f a5be 9e08 fbbe 2421 853e
00000040: 9c52 fcbe aecf adbe 8637 02bf 7cbc d03e
00000050: b29e 4b3e a183 3e3d b2d4 33be 612e 50bb
00000060: e2ba ec3e ea6d 033e 2a05 8f3e fab3 b93d
00000070: 6836 40be bab2 02be 083b b3be 7110 9c3e
00000080: 6fd0 cbbe 302a 2dbe 2f4f 47be 7d2a 8b3e
00000090: f51d 66bd 9c17 d03e 1d35 b93e 0d33 cb3e
000000a0: abd2 3bbe e6cf c5be 4267 9c3d 8b69 5c3e
000000b0: afbc a7be 568a ffbe b101 713e 3c99 da3e
000000c0: a5f2 723d 23ba 093e 2cd8 55be ffd3 0cbf
000000d0: af1a c0be c34a f0be 52dc 0ebf a0a3 adbe
000000e0: 0c32 bdbe 3104 babc f6d6 8a3e da7b 073e
000000f0: fbe6 a03e cde2 8c3e 2ddd 1c3d 055f 993e
00000100: 9814 903e a6e6 0ebf 0906 c63e 6439 823e
00000110: 0ea4 ea3c 71d2 aabe 27c1 82be a570 423e
00000120: 6391 72be f8e7 97be 277b debe 423b 363e
00000130: 3063 773d 6f59 d43e 1376 8c3c 98d5 bd3e
00000140: d52d a93e 2e67 07bf d0e6 863e d715 97be
00000150: c4c0 b63e 4b9a 51be 9860 7bbb 2c4a 0e3f
00000160: 36f2 f1be 00d8 713e 3b25 0e3f adda d0be
00000170: 78a9 f53d 4def 33be d834 863e 82ec a3be
0.14299119 -0.021591242 -0.1629967 -0.1662046 0.30047283 -0.31177694 0.3775278 0.16127722
0.09339955 -0.19006062 -0.4692681 -0.39238596 -0.5249466 -0.32238472 -0.49030012 0.26001847
-0.49281776 -0.3394751 -0.5086597 0.40768802 0.19884756 0.04651225 -0.17561606 -0.0031765925
0.4623633 0.12834898 0.27933627 0.09067531 -0.18770754 -0.12763491 -0.35005975 0.30481294
-0.3980746 -0.16910625 -0.194638 0.27180853 -0.056180913 0.40643013 0.36173335 0.39687386
-0.18342082 -0.38635176 0.07636882 0.21524636 -0.32761142 -0.4991023 0.23535801 0.42695034
0.059313435 0.13449912 -0.20883244 -0.5501098 -0.37520358 -0.4693204 -0.5580493 -0.33913898
-0.36952245 -0.022707077 0.27117127 0.1323084 0.31426224 0.27516785 0.038296867 0.29955307
0.28140712 -0.5582069 0.3867648 0.2543441 0.02864268 -0.3336368 -0.2553799 0.18988283
-0.23688273 -0.29669166 -0.43453333 0.17796043 0.060397327 0.41474482 0.017146146 0.37077022
0.3304278 -0.52891815 0.2634797 -0.2950885 0.35693944 -0.20469014 -0.0038357135 0.5558193
-0.47255105 0.23617554 0.5552556 -0.40791836 0.11995214 -0.17571755 0.26212192 -0.3201638

encoder.0.0.conv_downsample.bias f4 [32]
00000000: c9d4 893e 24cd 363e 85ed 453e fa28 063f
00000010: 2592 e4be 6963 1c3f 3a65 0a3f c084 023f
00000020: 1a88 5bbe a4e5 b83e 9609 363e fbee 183f
00000030: 5af5 443e d4e1 14bf cc7e 0dbe 6f71 6e3e
00000040: b608 723e 17d5 07bf 76b1 d0be b3b0 803e
00000050: 69bf 11be b05f d73e 1693 c33e cf53 ea3e
00000060: b0e3 11bf bd84 8c3d 755f f9be 4e67 cbbe
00000070: 813e c7be 101f 003f 7038 e1bd d511 bbbd
0.26920155 0.17851692 0.19328888 0.52406275 -0.4464275 0.6108919 0.5406071 0.5098381
-0.21438637 0.36112702 0.17777094 0.59739655 0.19234219 -0.58157086 -0.138179 0.23285459
0.23636135 -0.53059524 -0.40760392 0.2513481 -0.14233173 0.4206519 0.38198155 0.45767066
-0.5698805 0.06861255 -0.4870564 -0.39727253 -0.38914874 0.500474 -0.10997093 -0.091342606

encoder.1.0.bn1.weight f4 [32]
00000000: e789 0080 e789 0080 e789 0080 e789 0080
00000010: e789 0080 e789 0080 e789 0080 e789 0080
00000020: e789 0080 e789 0080 e789 0080 e789 0080
00000030: e789 0080 e789 0080 e789 0080 e789 0080
00000040: e789 0080 e789 0080 e789 0080 e789 0080
00000050: e789 0080 e789 0080 e789 0080 e789 0080
00000060: e789 0080 e789 0080 e789 0080 e789 0080
00000070: e789 0080 e789 0080 e789 0080 e789 0080
-4.947e-41 -4.947e-41 -4.947e-41 -4.947e-41 -4.947e-41 -4.947e-41 -4.947e-41 -4.947e-41
-4.947e-41 -4.947e-41 -4.947e-41 -4.947e-41 -4.947e-41 -4.947e-41 -4.947e-41 -4.947e-41
-4.947e-41 -4.947e-41 -4.947e-41 -4.947e-41 -4.947e-41 -4.947e-41 -4.947e-41 -4.947e-41
-4.947e-41 -4.947e-41 -4.947e-41 -4.947e-41 -4.947e-41 -4.947e-41 -4.947e-41 -4.947e-41

encoder.1.0.bn1.bias f4 [32]
00000000: 0000 0000 0000 0000 0000 0000 0000 0000
00000010: 0000 0000 0000 0000 0000 0000 0000 0000
00000020: 0000 0000 0000 0000 0000 0000 0000 0000
00000030: 0000 0000 0000 0000 0000 0000 0000 0000
00000040: 0000 0000 0000 0000 0000 0000 0000 0000
00000050: 0000 0000 0000 0000 0000 0000 0000 0000
00000060: 0000 0000 0000 0000 0000 0000 0000 0000
00000070: 0000 0000 0000 0000 0000 0000 0000 0000
0.0 0.0 0.0 0.0 0.0 0.0 0.0 0.0
0.0 0.0 0.0 0.0 0.0 0.0 0.0 0.0
0.0 0.0 0.0 0.0 0.0 0.0 0.0 0.0
0.0 0.0 0.0 0.0 0.0 0.0 0.0 0.0

encoder.1.0.bn1.running_mean f4 [32]
00000000: 7385 de3e 4844 bf3e 3d49 373f 8604 f43e
00000010: 15d1 51bf 342c 4a3f e9b5 d73e ccd3 d13e
00000020: f77b 6f3e 2d3b b73e 69ea 433e eb56 f43e
00000030: ac4f 423f 7f5c 4abf a359 debe 8d09 ed3e
00000040: 5515 113f f2f5 2fbf f8a9 5abf 97a1 3fbd
00000050: f3a9 f73e 879d df3e dc8f 753f 9898 4c3f
00000060: 4c69 67bf 2284 1a3e c2ad afbe 9098 02bf
00000070: 7233 35bf 0dc0 863f ab93 26be d043 7ebd
0.4346119 0.37356782 0.7159613 0.476597 -0.8195966 0.789737 0.42130974 0.409819
0.23387133 0.35787335 0.19132389 0.47722563 0.7590282 -0.7904739 -0.43427762 0.4629635
0.56673175 -0.6873466 -0.854156 -0.046784963 0.48371848 0.4367487 0.95922637 0.7992034
-0.90395045 0.15089467 -0.34312254 -0.5101404 -0.70781624 1.0527359 -0.16267268 -0.06207639

encoder.1.0.bn1.running_var f4 [32]
00000000: c21f c53d b3f2 a53e 5d5a 233f 40bf 043f
00000010: 3935 813f ed67 4b3e d696 bc3e 3219 203e
00000020: 2335 023f f0c5 0e3f 77dc 4f3e 68c4 eb3d
00000030: c02f db3f ce46 d63d 5fd0 e33d 255c 723e
00000040: b4cf a23e 49d8 b73e fc2c 443f 1ab1 4e3e
00000050: 243e dd3e 1fa8 fe3e b5ce 6c3e d54a 383e
00000060: 911f 293e 1f3a 2c3e 0f57 2c3e e8bf bf3e
00000070: bebc c43d e70d 6d3e ee4f 8a3e 2dd4 f03e
0.09625198 0.32411727 0.6380976 0.51854324 1.0094367 0.19863863 0.3683383 0.15634611
0.5086233 0.5577078 0.20298944 0.11512071 1.7123947 0.10462724 0.11123728 0.23667963
0.3179909 0.359072 0.7663114 0.20184746 0.43211472 0.4973764 0.23125727 0.17997296
0.16515948 0.16819046 0.16830085 0.374511 0.09606312 0.23149835 0.27014107 0.47036877

encoder.1.0.conv1.weight f4 [32, 32, 2, 3]
00000000: f4aa 05bd 5076 a9bd 52f5 40bc f371 883c
00000010: a3e1 7fbd be1c 74bc d57a c6bb e7ba 8cbc
00000020: 25b8 0e3d 51d3 993d c814 ad3d f010 55bd
00000030: b423 6ebd 56bf 25bc 79b6 8dbd 5fa3 2bbd
00000040: 42e8 de3b 3b78 32bc 2d54 1dbd 1c44 673d
00000050: d60a 00bd 012a a43c 150a 093c 67c1 dcbc
00000060: 6345 833c 5084 6b3d a89a 673d ca20 3ebd
00000070: edaa 8c3c 9458 2e3c 0578 42bd 71a0 a4bd
00000080: 5dfe febd 229a 623b 065e 84bc 5332 893d
00000090: 5b59 babb 465b 9bbd 0584 a1bc 42ba 1cbb
000000a0: 88f3 0b3c 9405 b8bc f32a 9fbc 8677 04bd
000000b0: 556a edbc 8752 77bd a3e0 35bd fc74 38bd
000000c0: 5a33 ad3c ab20 36bd 0c1f 5a3d 9cd0 243d
000000d0: 3ec4 913d dbff 6a3d bd0f a9bc 51f8 3ebc
000000e0: 8bf5 2a3d fd7b 8b3d 2a18 52bc 7ff7 82bd
000000f0: 4455 653c 0292 93bb ae68 5cbc abb5 afbc
00000100: a8fc c23c 4451 bdbc f9aa 943b a03b a8bd
00000110: b1e9 23bd f9b6 7d3c c5f1 0b3d 79ac 693d
00000120: 8a3d ccbc fa84 d23c 1407 4cbd fdd2 74bb
00000130: 679c 5cbd ea76 f33c ccc9 593d beaf 3fbd
00000140: 277d c13c aa95 383d 6e25 09bd 80a1 b1bb
00000150: 3d74 263c 1426 96bd 7a76 da3c 7951 28bd
00000160: 1c73 f439 65b5 25bc 7488 ab3d 10d0 223d
00000170: ac53 49bc 3609 af3c 2bb3 3abb 4358 713c
00000180: 3c73 393d bfa5 debc bc7d a2bd 1495 ff3b
00000190: 981a 183d 86b4 61bd bd01 153d 49c7 cebc
000001a0: 3762 be3d c641 633d e443 67bd fe69 9bbd
000001b0: 67ae 10bb e0f2 3dbd 1331 863d ed97 9ebc
000001c0: 8c94 0f3d 6b67 8a3d 400b dabc 985f 92bd
000001d0: 8c27 253d 8b6b 263d 23e1 9b3d ca84 49bd
000001e0: 827d 01bd 6c37 69bd 58b8 1bbd e9d4 763d
000001f0: d33c e73d 93b5 613c b7db 92bd 6bc7 d5bc
00000200: d69e b9bd 5831 2c3d 4e52 86bd b2aa 65bd
00000210: 1805 a1bd 7b51 2d3d f9c5 2dbd dc8f bf3c
00000220: 8138 d1bb ad00 383c 0b1a fcbb 1e6b 79bc
00000230: e195 87bc d9d3 0c3d f2e3 cebc d56c 0e3c
00000240: 7f36 fe3c f835 0e3d cca4 093c deda 5cbd
00000250: 1e6b a0bc 583c f83c 0d43 653d fdf6 8d3d
00000260: 11fc e7bb 2025 6ebd f380 623d 853c 3c3c
00000270: 749b 8bbd a1bb 5f3d 139e 873c 9caf b0bd
00000280: 05d8 05bd 4db6 2cbd 0ab7 2dbd ac37 6a3d
00000290: 1ecc e33c 4967 4bbd 74c6 89bd 49d0 babc
000002a0: a4a0 bf3c 813f c0ba 8e3c cabc 0863 62bd
000002b0: e634 02bd 60de 103d 55d2 93bc 73f2 c4bc
000002c0: 0e9e 94bc 9c68 a63d 6208 863d 56e3 0fbd
000002d0: c763 d53c 71d1 043c 4f07 a63c 0e10 a53c
000002e0: 5b83 f13c a1b4 983c 975c 2c3c f880 19bd
000002f0: 5ba2 5a3d 29da 9f3c 8b7a be3c 945f 8b3d
00000300: 517f 98bc b1f1 9b3c 6223 673c 1d3e 45bc
00000310: 3a02 87ba 8eb3 edbc 4c27 233d 4391 7dbd
00000320: ad9b 953d 035f 6e3d 25aa 733d 39d9 923c
00000330: 8e1b 1fbd e55e e4b9 9bf7 cf38 ce70 2e3d
00000340: 1f43 01bd b45d d2ba 8c76 743d 994b 09bd
00000350: 22c8 5a3d 376a 21bd efc9 e33c 5796 40bd
00000360: 52d0 903d 5f4c 413d 0d73 6b3d e5ad 3e3c
00000370: 1346 64bd ab87 443d 7d3a 2d3b bf36 cfbc
00000380: 3485 ad3b b4b9 9b3d 501a 4fbb 8611 98bc
00000390: ac04 1e3c b551 e43c a812 603d e1fc 2d3d
000003a0: 2da1 22bb b136 29bd fef2 35bc 67f9 b33d
000003b0: 2987 7cbd c276 a1bc fa7b 01bd ba90 dabb
000003c0: 7e13 7a3c d4b1 973b 88d9 d13c f3b4 89bd
000003d0: a569 753a 01f1 cb3c 4c9b b03d 66b3 4ebd
000003e0: 371b afbb f51b 5c3d b45a 85bd 985f a7bd
000003f0: 1d35 98bd 8e30 6bbb 36be 1a3d ea9e 043d
-0.032633737 -0.082745194 -0.011777239 0.016655898 -0.062471043 -0.014899431 -0.006057123 -0.017178966
0.034843583 0.075110085 0.08451229 -0.052018106 -0.058139518 -0.010116419 -0.069195695 -0.04190385
0.0068025896 -0.010892923 -0.038410354 0.05646144 -0.031260334 0.02003956 0.00836422 -0.02694769
0.016024297 0.05749923 0.056543976 -0.04641799 0.017171348 0.010641236 -0.04747774 -0.08038414
-0.1245086 0.0034576734 -0.016158115 0.06699052 -0.0056869215 -0.075857684 -0.019716272 -0.002391473
0.008541949 -0.022463597 -0.01942966 -0.03234055 -0.028981367 -0.06038144 -0.044403683 -0.04503344
0.02114265 -0.04446475 0.053252265 0.040238008 0.07117508 0.05737291 -0.020637387 -0.011655883
0.041738074 0.06810758 -0.012823144 -0.063948624 0.01399738 -0.0045034895 -0.013452692 -0.02144893
0.023802117 -0.02311004 0.004536983 -0.082144976 -0.040017787 0.015485519 0.034166116 0.05704925
-0.024931688 0.025698174 -0.049811438 -0.0037357204 -0.053860094 0.029719789 0.053170964 -0.04679846
0.023619248 0.045064606 -0.03348296 -0.0054208636 0.010159549 -0.073314816 0.026667822 -0.041093323
0.0004662507 -0.010114049 0.08375636 0.039749205 -0.012288015 0.021366697 -0.002848814 0.014730516
0.04527591 -0.027178643 -0.07934138 0.007799754 0.037134737 -0.0551038 0.03637861 -0.025241511
0.09296077 0.05548265 -0.05646123 -0.07588576 -0.0022076608 -0.0463742 0.06552329 -0.019359553
0.035053775 0.06758007 -0.026616693 -0.07147139 0.040320918 0.040629905 0.07611301 -0.049198903
-0.031613834 -0.05693762 -0.0380176 0.06026164 0.11290898 0.013776201 -0.071708135 -0.026096066
-0.09063499 0.042039245 -0.06558667 -0.05607099 -0.078623 0.042314034 -0.04242513 0.023384027
-0.0063849096 0.01123063 -0.0076935343 -0.015223293 -0.01655096 0.03438172 -0.025255177 0.00869294
0.031031845 0.034719437 0.008401107 -0.053919666 -0.019582327 0.030302212 0.055972148 0.06931875
-0.007079609 -0.058140874 0.055298757 0.011489038 -0.0681676 0.054622296 0.016554868 -0.08627245
-0.032676715 -0.042166043 -0.042410888 0.057182 0.027807292 -0.049659047 -0.06727305 -0.022804396
0.02339203 -0.0014667363 -0.024687078 -0.055270225 -0.03178873 0.035368323 -0.01804463 -0.02404139
-0.018141773 0.081254214 0.06544568 -0.035128914 0.026048554 0.008106575 0.020267157 0.020149257
0.02948158 0.018640818 0.010520122 -0.03747651 0.05337749 0.019513207 0.023251792 0.068053395
-0.018615397 0.019036146 0.014107557 -0.012038735 -0.0010300346 -0.029016282 0.0398324 -0.06190611
0.073050834 0.05819608 0.059488434 0.017925845 -0.038844638 -0.0004355825 9.916649e-05 0.042588048
-0.031558152 -0.0016049654 0.059683368 -0.03351936 0.053413518 -0.039407935 0.02780625 -0.047018375
0.07070984 0.047191974 0.057482768 0.011638139 -0.05573089 0.047980946 0.0026432567 -0.02529466
0.00529542 0.076037794 -0.0031601377 -0.018563043 0.009644669 0.027870992 0.054705292 0.042477492
-0.0024815307 -0.041311923 -0.011105297 0.08787804 -0.061652336 -0.019709948 -0.031612374 -0.006670085
0.015263436 0.004629353 0.025616422 -0.067239664 0.00093617506 0.024895193 0.086233705 -0.050464056
-0.0053438204 0.0537376 -0.06511441 -0.0817253 -0.074320056 -0.0035887095 0.037779056 0.032378115

encoder.1.0.conv1.bias f4 [32]
00000000: 8e18 e3b8 3cc5 87b9 3ba0 4f38 4e98 7bb9
00000010: faff 9bb9 4f74 70b9 faf4 4636 f054 4db9
00000020: 2674 c138 11db 3c39 25be 09b9 def6 4837
00000030: 1c5b 6738 d132 0139 6b78 3737 b23a d5b8
00000040: 68d1 08b6 c0df 1139 7408 b439 2a46 8b39
00000050: fc46 2f37 988a 5ab9 4c71 cf39 296c b7b8
00000060: 1921 0937 1ffd 5c39 3b70 9d39 8ddb d5b8
00000070: 40cb 42b9 7f47 30b9 71f2 c338 0561 d738
-0.00010828777 -0.00025896158 4.9501872e-05 -0.00023993963 -0.0002975462 -0.00022931512 2.9646894e-06 -0.00019581965
9.2245915e-05 0.00018010686 -0.00013136172 1.1978407e-05 5.5159544e-05 0.00012321329 1.0935687e-05 -0.00010167564
-2.038747e-06 0.00013911631 0.00034338573 0.00026564422 1.044734e-05 -0.0002084173 0.0003956653 -8.7462664e-05
8.1735425e-06 0.0002107513 0.00030028992 -0.00010197526 -0.00018576998 -0.00016811302 9.343483e-05 0.0001027007

encoder.1.0.bn2.weight f4 [32]
00000000: 3a8f 7a3f 8f4e 7c3f 4248 7e3f 3450 813f
00000010: 6bab 773f d97f 893f f7a4 773f f6df 633f
00000020: e120 743f 0b44 6a3f 0bd5 823f 98df 813f
00000030: 003b 733f d684 893f a526 6c3f 422a 8f3f
00000040: d903 7d3f 1405 763f 3df5 803f a454 6e3f
00000050: 9103 803f d7ed 893f 500a 783f 677c 813f
00000060: 7b8b 7e3f b243 8c3f df43 6a3f 5224 883f
00000070: 3487 703f 6314 843f bdf5 813f 529f 743f
0.97874796 0.9855737 0.99329007 1.0102601 0.9674594 1.0742141 0.9673609 0.8901361
0.9536267 0.91510075 1.0221266 1.014636 0.950119 1.0743663 0.92246467 1.1184771
0.98833996 0.961015 1.0074841 0.930979 1.0001088 1.0775708 0.96890736 1.011609
0.9943158 1.0958159 0.91509813 1.0636084 0.93956304 1.0318722 1.0153118 0.95555604

encoder.1.0.bn2.bias f4 [32]
00000000: 1c60 e6bd 28ae 4c3c 6990 87bd cd1c fabd
00000010: 5e41 c4bd bcb5 dfbd 1efb c2bc f497 3f3e
00000020: 3909 be3c 0581 2c3d 786e b4bd 7800 26be
00000030: 5e50 21bd e808 7abe 61a3 723d 9993 34be
00000040: 3643 973d ea43 a8bd 9574 03bd 5f30 bcbb
00000050: 16d2 00be 61ad 03be bf50 35bd 00e7 afbd
00000060: 1f1b fabd 702f 91be 1721 2e3e b809 5dbd
00000070: c7ea 283d d8ba 62bd da6f b1bd 859d e9bb
-0.112488 0.012492694 -0.06619341 -0.122125246 -0.0958278 -0.10923335 -0.023801383 0.1871031
0.023197757 0.04211523 -0.08810133 -0.16211116 -0.039383285 -0.2441746 0.05923784 -0.17634429
0.07385866 -0.082160786 -0.032093603 -0.005743071 -0.12580141 -0.12859108 -0.04426646 -0.08588982
-0.12212204 -0.28356504 0.1700481 -0.053964347 0.041239526 -0.05535397 -0.08663912 -0.0071293735

encoder.1.0.bn2.running_mean f4 [32]
00000000: 6bfb 1ebf 2464 84be f8b7 94be 20f9 d0be
00000010: ce51 a2be 6430 6bbf f464 1dbf 82f8 32be
00000020: cc89 74bf cc12 7cbe bddf c2bd 8dd0 b9bd
00000030: d222 0d3f 5530 67be 7b1d 433f 6cf8 49bf
00000040: 204f 923e 0f42 66bd b418 683f dd95 24bf
00000050: 4bc8 cfbe c79f 06bf 5ce3 aa3e 5411 b93d
00000060: 8ac8 183e b6f6 29bf 0518 213f ec08 70bf
00000070: eabc 69bf 198c b5bc 2ac3 3ebd 59ad 833e
-0.62102383 -0.2585765 -0.29046607 -0.40815067 -0.31703037 -0.91870713 -0.6148217 -0.1747761
-0.9552276 -0.24616545 -0.09515331 -0.09072981 0.55131257 -0.22577031 0.7621686 -0.78894687
0.28575993 -0.056215342 0.90662694 -0.64291173 -0.405825 -0.5258755 0.33376586 0.09036508
0.1492025 -0.66392076 0.62927276 -0.93763614 -0.91303885 -0.02216153 -0.04657284 0.2571819

encoder.1.0.bn2.running_var f4 [32]
00000000: cc05 bc3e 2db6 933e 3f20 533e 45bf e93e
00000010: 722d b03e 68e5 8e3f ae41 ae3e 1d81 e93e
00000020: 19a6 303f dbbc 873e b173 883f 2f20 073f
00000030: 8010 033f 0dc7 283f fedc 153f 0563 a03e
00000040: a2e8 5e3e 6020 133f 2b87 a23e f378 dc3e
00000050: e8b1 203f ccbf c43e 9120 353e 305f 303f
00000060: a521 843f b282 ae3e 2255 ae3e 75b0 583f
00000070: aaa9 903e 25d6 6b3f 6450 413f 0a4c 903e
0.36723173 0.28849927 0.2061777 0.4565374 0.34409672 1.1163759 0.34034485 0.45606318
0.69003445 0.26511273 1.0660306 0.52783483 0.5119705 0.6592873 0.5854033 0.31325546
0.2176843 0.57471275 0.3174375 0.43061027 0.62771463 0.3842758 0.17688204 0.68895245
1.0322767 0.34084088 0.34049326 0.8464425 0.28254443 0.92123634 0.7551329 0.28183013

encoder.1.0.conv2.weight f4 [32, 32, 2, 3]
00000000: b306 9ebc cdb8 5fbd 6465 9b3c a113 abbd
00000010: 6461 343d 9783 be3c b2e5 99b6 2fb2 913d
00000020: bcca 8c3d fdf8 56bc 7fb8 60bd e21b fe3b
00000030: e390 54bd 89e9 b03c 04b6 66bd 598d d73c
00000040: 8643 4a3d 86fe 9ebd 2919 e03c 085c 3ebd
00000050: 2e76 5c3d b4cd 8bbd 9af3 b4bd 05f4 31bb
00000060: 21fe 4fbc 8dbf cd3b 8c1a a1bc 763a fd3b
00000070: e2d0 0e3d 53d7 57bd 2210 7fbd 5556 3a3a
00000080: 296c a7bc e86c b3bd 0e8b 3ebd 7567 6f3c
00000090: 14e2 c63c a416 053d 1b95 a83d 4884 9e3d
000000a0: 3c51 01bd c58d 303d 7658 613c c5f0 ce3c
000000b0: 11dd 523d ee72 ed3c 6d0e b2bc 92fd b33c
000000c0: 5bd5 dabc 7cbc f03b becb 273d 0126 9ebc
000000d0: 98e1 32bc f827 4cbd 6924 98bc 72b4 04bd
000000e0: 3206 80bb f0a8 58bd 61c2 633d 1b87 653d
000000f0: 9223 243d 7e76 59bd 1a58 0cbd bd74 88bd
00000100: 026c 08bd 39b9 d8bc 7b3b e13c 2ff3 593d
00000110: c8d3 603d c7be 363d eac6 773c 237d 04bc
00000120: 44ab a63c 11c8 6dbd 363d ea3b acdf 8dbb
00000130: d5ff 5d3b 8362 373d 62a8 523d 56fa abbc
00000140: 1ce4 e13c 807a cdbd 9f6c 873c ce1f 943c
00000150: 36dd 88bd b7ef 493d c7d2 fe3c 1c67 99bc
00000160: bb9b 983d 7476 823d 56e2 0d3d 4566 9e3d
00000170: 608b 49bd 6ff2 44bc 1de7 cbbd 16dc 9fbd
00000180: 49a5 b83d 413d 013d 481f ccbc 402e 363a
00000190: d1da 1fbd 4967 303d cfca 56bd 0d98 f13b
000001a0: 806d 9bbc 64b3 4abd c43a 0ebb 71e5 8b3d
000001b0: 9cfd c5bc 3ace 58bd 6ff8 4dbd 0d71 053d
000001c0: c8ea 203c 85c7 493c aedc 493d 53e9 cdbc
000001d0: 13d7 a4bc 7c4a e6bc f1a2 b3b9 387c 053d
000001e0: 156b 5fbd c495 5ebd 94fa fc3c 6694 5ebd
000001f0: 7eb7 503d ec26 2cbd 1ce7 783c 3868 b9bc
00000200: 294f 7bbc 55c0 aa3c 3d85 d8b9 8719 f6ba
00000210: 401a 97bc 81f3 d3bc 5165 963d f963 943c
00000220: e4da d83c 0b32 82bd e349 453d af7e 9a3c
00000230: 8e7c 9d3c cd20 183d 0f2d 60bd 410b 80bd
00000240: 5bd1 60bd 07fb e03c 4fd9 273d 02b3 273c
00000250: 47ce ee3c 67b3 23bc 936b 95bd a848 d2bd
00000260: fa6e a53c 8bc0 683d cb20 21bd 7404 223d
00000270: de6b 70bd e21a b03b a07f ca3b 98a1 06bd
00000280: f3d9 913b 11fd 343d 0c37 63bd 376f b33b
00000290: 2582 a93c ffb3 adbd 214c b9bd 1364 2cbd
000002a0: 1492 27bc 94ee 813d 27b1 d3bc 5821 4fbc
000002b0: 8b7b 583d 8548 bfbc a80b b1bd 7250 e9bc
000002c0: 2644 66bd 2127 e0bb 139a 81bb fcc4 a0bd
000002d0: b8a6 0f3d c270 103c 23fc 7fbd 5f68 7c3d
000002e0: b946 5fbd cc7a 6dbd 6bab a0bd 6002 323c
000002f0: 6033 67bd 06ab 7e3d b54c 6fbd fdba 8fbd
00000300: 99ae 523d b855 403d 37fa 69bd f4a5 0cbc
00000310: 82e9 1cbc 1db0 5ebd cf38 e7bb 6bd4 72bb
00000320: a4d7 1b3d ee58 b83b cbba 153c 11d1 05bd
00000330: 97b9 56bb 880e d33c 68dc b43d d843 a93d
00000340: c779 b03c f065 5ebd 3f38 89bd 71f9 123d
00000350: f065 6c3d 4359 80bd 98ba 5dbc e740 77bc
00000360: dbe0 1dbd 71cb 80bd 061a 89bd 9f11 2e3c
00000370: 914a adbd 242b f33c a486 2cbd 6996 133c
00000380: d392 68bd 46bf f3bb 96c9 37bd 8faf 2abd
00000390: 8d34 723d e88f 363d 3180 803c d87a 9d3d
000003a0: 00b0 463d be72 0ebd 0606 5bb9 c8af c7bc
000003b0: 4262 8abd b2a1 6dbd ab01 94bd eb99 33bd
000003c0: edac 043d 48fc 7c3d df8c 883d b672 f73b
000003d0: bc45 88bc 6834 d23c 06bc 113d 8bb0 5fbd
000003e0: b7c6 9b3d 7964 333d 2de2 64bd b2e0 57bb
000003f0: 7854 003d 11f0 513d 7556 fcbc 4471 b23c
-0.019290304 -0.0546196 0.018969245 -0.08353353 0.04403819 0.023256106 -4.5864954e-06 0.07114064
0.06874606 -0.013120887 -0.05486345 0.0077547887 -0.051895987 0.021595733 -0.056325927 0.026312517
0.0493808 -0.0776339 0.027355747 -0.046474487 0.053823642 -0.06826344 -0.08835526 -0.0027153504
-0.012694866 0.006278938 -0.019665979 0.0077279164 0.034867175 -0.052695584 -0.062271245 0.00071082014
-0.020437317 -0.087610066 -0.04651933 0.014612068 0.024277724 0.032492295 0.082315646 0.077400744
-0.03157161 0.043103952 0.013754001 0.025261292 0.051480357 0.028985467 -0.021735394 0.021971498
-0.026713064 0.007346688 0.040965788 -0.019305231 -0.010918044 -0.049842805 -0.01857205 -0.03239865
-0.0039069885 -0.052895486 0.055605296 0.05603705 0.040072985 -0.05309152 -0.034263708 -0.06662891
-0.03330613 -0.026455509 0.027494183 0.053210434 0.05488947 0.044615533 0.015123108 -0.008086476
0.020345338 -0.058052126 0.00714841 -0.0043296423 0.0033874412 0.044771682 0.051430114 -0.020993393
0.027574591 -0.10033131 0.016531287 0.018081572 -0.06682818 0.049300876 0.031106366 -0.018725924
0.07451578 0.063702494 0.03463968 0.0773435 -0.049205184 -0.012020691 -0.09956191 -0.0780565
0.09015901 0.031552557 -0.02491726 0.0006949641 -0.03902704 0.04306725 -0.052439507 0.007372862
-0.018973112 -0.049487486 -0.0021702508 0.06830872 -0.024168782 -0.052931048 -0.050285753 0.032578517
0.009821601 0.012315636 0.049282722 -0.025135672 -0.020122087 -0.028111689 -0.0003426294 0.032589167
-0.05454548 -0.054342046 0.030881204 -0.054340743 0.05095624 -0.042029306 0.0151918195 -0.022632703
-0.0153386975 0.020843664 -0.00041298 -0.0018775918 -0.018445134 -0.025872948 0.07343543 0.018114077
0.026471563 -0.06357201 0.048166167 0.018859236 0.019224431 0.037140656 -0.05473047 -0.062521465
-0.054887157 0.02746345 0.040978726 0.01023555 0.029151095 -0.009991503 -0.07295909 -0.10267764
0.02019452 0.05682425 -0.039337914 0.039555028 -0.05869662 0.0053742984 0.006179765 -0.03286895
0.0044510304 0.044186655 -0.05547242 0.0054759043 0.02069194 -0.08481597 -0.090477236 -0.042087626
-0.010227699 0.06344333 -0.025841309 -0.012642227 0.052852195 -0.02335001 -0.086448014 -0.028480742
-0.056217335 -0.006840602 -0.0039551347 -0.07850072 0.035071105 0.008815946 -0.062496316 0.061622974
-0.054510806 -0.057978436 -0.078451954 0.010864824 -0.05644548 0.06217482 -0.058422763 -0.07018087
0.05143604 0.046956748 -0.05712339 -0.008584488 -0.009577157 -0.054367173 -0.0070563327 -0.003705288
0.038047448 0.0056258356 0.009138773 -0.032670084 -0.0032764429 0.025763765 0.08831102 0.08264893
0.021542443 -0.054296434 -0.06700181 0.035882417 0.057714403 -0.06267025 -0.013533257 -0.0150911575
-0.038544517 -0.06288803 -0.06694417 0.010624318 -0.08461488 0.029683657 -0.04212059 0.009008029
-0.056780647 -0.007438573 -0.04486998 -0.041671332 0.059132148 0.044570833 0.015686126 0.07689446
0.04850769 -0.034777395 -0.00020887711 -0.024375811 -0.067570224 -0.058015533 -0.07226881 -0.04384796
0.032391477 0.06176403 0.06667494 0.0075515164 -0.016634814 0.025659755 0.035579704 -0.054611724
0.07606261 0.04379699 -0.05587976 -0.0032940325 0.031330556 0.051254336 -0.030802945 0.021782525

encoder.1.0.conv2.bias f4 [32]
00000000: 2ee7 a53d e2ed 1cbd 9ed9 883c b038 203d
00000010: a296 f4bd 14a5 dc3d 8c72 243d 6940 47bd
00000020: d2a5 903d e229 a9bd 85b9 893d c986 323d
00000030: 9959 0a3e cbb2 6dbd d3d3 09be 3004 d33c
00000040: c968 023d d32f 01be 2d38 9dbd d0d6 bb3d
00000050: 9d28 21bd c663 89bd d7dc 093d 6444 a0bc
00000060: 6458 f83c 99d2 85bb b917 14bd 6138 06be
00000070: f7d8 afbd 68a5 d2bc 7854 84bd 8a8a 333d
0.08100735 -0.0383128 0.01670533 0.03911656 -0.119427934 0.10773674 0.040148303 -0.04864541
0.07062878 -0.08259942 0.06724838 0.043585572 0.13510741 -0.05803184 -0.13459711 0.025758833
0.031838212 -0.126159 -0.0767673 0.091718316 -0.039345372 -0.067084834 0.033657875 -0.019563861
0.030315585 -0.004083943 -0.036155436 -0.13107444 -0.08586305 -0.025713637 -0.06461424 0.043833293

encoder.2.0.bn1.weight f4 [32]
00000000: e789 0080 e789 0080 e789 0080 e789 0080
00000010: e789 0080 e789 0080 e789 0080 e789 0080
00000020: e789 0080 e789 0080 e789 0080 e789 0080
00000030: e789 0080 e789 0080 e789 0080 e789 0080
00000040: e789 0080 e789 0080 e789 0080 e789 0080
00000050: e789 0080 e789 0080 e789 0080 e789 0080
00000060: e789 0080 e789 0080 e789 0080 e789 0080
00000070: e789 0080 e789 0080 e789 0080 e789 0080
-4.947e-41 -4.947e-41 -4.947e-41 -4.947e-41 -4.947e-41 -4.947e-41 -4.947e-41 -4.947e-41
-4.947e-41 -4.947e-41 -4.947e-41 -4.947e-41 -4.947e-41 -4.947e-41 -4.947e-41 -4.947e-41
-4.947e-41 -4.947e-41 -4.947e-41 -4.947e-41 -4.947e-41 -4.947e-41 -4.947e-41 -4.947e-41
-4.947e-41 -4.947e-41 -4.947e-41 -4.947e-41 -4.947e-41 -4.947e-41 -4.947e-41 -4.947e-41

encoder.2.0.bn1.bias f4 [32]
00000000: 0000 0000 0000 0000 0000 0000 0000 0000
00000010: 0000 0000 0000 0000 0000 0000 0000 0000
00000020: 0000 0000 0000 0000 0000 0000 0000 0000
00000030: 0000 0000 0000 0000 0000 0000 0000 0000
00000040: 0000 0000 0000 0000 0000 0000 0000 0000
00000050: 0000 0000 0000 0000 0000 0000 0000 0000
00000060: 0000 0000 0000 0000 0000 0000 0000 0000
00000070: 0000 0000 0000 0000 0000 0000 0000 0000
0.0 0.0 0.0 0.0 0.0 0.0 0.0 0.0
0.0 0.0 0.0 0.0 0.0 0.0 0.0 0.0
0.0 0.0 0.0 0.0 0.0 0.0 0.0 0.0
0.0 0.0 0.0 0.0 0.0 0.0 0.0 0.0

encoder.2.0.bn1.running_mean f4 [32]
00000000: e2db 5a3f 8691 5f3f 0099 933f 4412 523f
00000010: a117 2dbf 5f8c 923f f446 213f 6d81 1a3f
00000020: 1400 e43e 4c12 4e3f dc3c 233f 9f2a 403f
00000030: 4c67 943f 8432 2abf 9e67 3ebe 438a 1f3f
00000040: a2f6 923f 2d7e 13bf cb90 b8be dbbf 813d
00000050: 5cf8 293f 609d f73e 5c95 9a3f 6d77 6d3f
00000060: 9951 2ebf 0cb9 d73e 5fe3 a33d 4d01 b3be
00000070: 8e2b 1dbf cd64 ab3f 2c0d cd3c b7fa 1b3e
0.85491765 0.87331426 1.1531067 0.8205912 -0.6761418 1.1449088 0.6299889 0.6035374
0.4453131 0.8049667 0.6376474 0.75065035 1.1594024 -0.6648333 -0.18594214 0.62320346
1.1481516 -0.57614404 -0.36047968 0.06335422 0.6639459 0.48362255 1.2076831 0.92760354
-0.6809326 0.42133367 0.08002352 -0.3496193 -0.61394584 1.3390137 0.025030695 0.15232359

encoder.2.0.bn1.running_var f4 [32]
00000000: ba9d 8e3f 9551 253f 0dec 0940 6a6e 8c3f
00000010: f5d1 233f 9644 913e f6c0 2d3f 30ef a33e
00000020: a2a6 d73e a30e da3f 44a1 2c40 1e05 a83e
00000030: 9584 7940 0ea3 5b3e 98e5 5c3f ae69 e83e
00000040: a125 683f 803c cd3e 420e 4c3f 9462 9f3e
00000050: 9932 e93e 010f 133f 6937 913f 9296 f73e
00000060: 7d84 1d3f fd19 283f b821 083f 0377 7f3e
00000070: 00ef 9f3e 8a87 af3f d9f6 b03e 0e12 b73e
1.1141884 0.6457761 2.1550324 1.0971196 0.63992244 0.2837264 0.6787256 0.32018423
0.42119318 1.7035717 2.6973429 0.32816404 3.8987172 0.21448919 0.8628783 0.45393127
0.9068242 0.4008522 0.79709256 0.31129897 0.45546415 0.5744477 1.1345035 0.48357064
0.61530286 0.65664655 0.5317645 0.24947743 0.3123703 1.3713238 0.3456333 0.35755962
