ALL MODEL CHECKPOINTS/FAN_AASIST_L_ASV.pth (torch, 236394 bytes, 111 tensors)

pos_S f4 [1, 23, 24]
000000 f2 8f 91 bc 3d 67 56 bb 55 6a 3b 3c 99 9e 0a bc
       -0.017768834 -0.0032715343 0.011438926 -0.008460664
000010 9c e0 1e 3a 8a 64 b6 3b 4a f5 1c bd e9 a6 14 b7
       0.0006060691 0.0055661844 -0.038319863 -8.860349e-06
000020 d4 39 5d 3b c1 b4 28 bb 37 62 1c 3a 83 2f 67 bb
       0.0033756392 -0.0025742503 0.0005965563 -0.0035276122
000030 10 ff 8a bc 16 d6 17 be 37 ce 23 bb 64 60 2a bd
       -0.016967326 -0.14827761 -0.002499474 -0.04159583
000040 39 ca 6f bc 63 5b 93 ba 24 4f 09 3d b2 59 dd bb
       -0.014635616 -0.0011242445 0.03352274 -0.0067550773
000050 af b2 8c 3b 53 d6 a5 3c be 99 ba 3a d9 2d 68 bc
       0.0042937617 0.0202438 0.0014236493 -0.014171087
000060 5f 64 79 3e cd 2d 35 3e 8b 44 05 be 77 5f 65 be
       0.24354695 0.17693253 -0.13014428 -0.22399698
000070 13 9f 53 be ea c5 55 3d 9f 8e f8 be f6 b3 a2 bd
       -0.20666151 0.0521907 -0.4854631 -0.07944481
000080 5d a4 23 bf 5c d6 54 be 36 9b 78 be 1d 91 98 be
       -0.63922673 -0.20784897 -0.24277958 -0.29798213
000090 50 47 1f 3e 98 e7 5d 3f 64 fd 42 3e dc ac 81 3d
       0.15554547 0.8668151 0.19041973 0.063317984
0000a0 6e 22 03 be 12 fe 83 be 6a e7 09 3f f9 97 21 3d
       -0.12806103 -0.25779778 0.53868735 0.039451573
0000b0 d9 4d 68 3c 3b ae 62 3e 4f 4a 04 3f 6f 59 00 3e
       0.014178717 0.22136776 0.51675886 0.12534116
0000c0 02 68 2c 3e ed 39 53 3e 10 0a d7 bc f5 7f 48 be
       0.16836551 0.20627566 -0.026249915 -0.19580062
0000d0 10 dd b0 bd c5 ac 40 bf 29 76 d8 bd 22 61 f8 bd
       -0.08635914 -0.75263625 -0.10569412 -0.121279016
0000e0 2b 19 65 bd 50 a6 4d bd ce 5e 13 be db 78 89 be
       -0.055932205 -0.050207436 -0.14391634 -0.26850018
0000f0 c4 e0 1f 3e 5b 4c 70 be 5f 68 5f bd a1 5b 8d be
       0.15613085 -0.23466627 -0.054542895 -0.2760897
000100 fa ac 47 bd 47 e0 00 3e 00 35 95 3d f9 76 2f 3d
       -0.048748948 0.12585555 0.072854996 0.04283807
000110 3d fa c6 bd 11 c0 c5 be 74 76 12 3d 1c b0 39 be
       -0.09715698 -0.38623098 0.035757497 -0.18133587
000120 9e 17 0a 3e 8f ab c5 3c 90 dd 85 bd 00 c9 1b 3e
       0.13485572 0.024129657 -0.065364 0.15213394
000130 5d 6a 4e be 2f 9e a0 3d b8 fa d7 3e 9a 48 64 bd
       -0.20157762 0.07842671 0.4218347 -0.0557333
000140 6a b1 96 3d a6 5d 65 3c 3f 7d 93 be 41 bb a7 3d
       0.07358058 0.013999378 -0.28806493 0.08190013
000150 4a 9d 51 be c0 55 03 be 61 b9 09 be 09 03 77 3d
       -0.20470157 -0.1282568 -0.13449623 0.06030563
000160 95 09 e6 bd 1e 44 23 bc 8f 75 6c be 88 16 8e be
       -0.112322964 -0.009964971 -0.2309172 -0.27751565
000170 96 79 53 bf 79 d6 43 be 4b 93 b9 3d e9 ab ce bd
       -0.826074 -0.19124784 0.09061297 -0.10091383
000180 e2 5e 3b be ba 6a ac 3d 89 db 73 3e f7 8a 1c 3f
       -0.18297914 0.08418794 0.23814215 0.61149544
000190 b4 4b 02 be 1c 94 34 3e 3e 35 1b 3d 29 cf 10 3e
       -0.12724191 0.17634624 0.037892573 0.14141525
0001a0 a4 8d 70 bc b7 47 02 3f c9 aa cf bd f6 2d 48 3e
       -0.014682207 0.5089068 -0.101399966 0.19548783
0001b0 07 43 16 3e fd b3 8a be f7 5f 9e 3c c4 b0 d3 be
       0.14674006 -0.27090445 0.019332869 -0.413458
0001c0 ba f2 5c bd 8c 3f 71 bd 32 16 92 3e 2a ca 03 3e
       -0.05394242 -0.058898494 0.2853256 0.12870088
0001d0 e2 40 a0 be 06 ee 39 be 07 60 e6 bd 2a ee cd be
       -0.31299502 -0.18157205 -0.112487845 -0.40220767
0001e0 d6 f0 38 be 37 11 4a be 0b c3 f1 bd 1b 82 1c 3e
       -0.18060622 -0.1973313 -0.118047796 0.15284006
0001f0 8c 13 c5 be ab 7a 59 bf 40 d9 08 bc 4c 80 12 3c
       -0.38491476 -0.849528 -0.008352578 0.008941721
000200 1c f9 1b 3f 9f d7 0c bf a1 f1 8d be 24 b8 0f 3f
       0.60926986 -0.5501651 -0.2772341 0.5614035
000210 63 b0 0c 3f d6 a7 49 bd 41 a1 38 bd 2f f3 03 3e
       0.54956645 -0.049232326 -0.04507566 0.12885736
000220 f3 f8 04 bf ed a0 da 3d da c3 6e be 6d 11 00 3e
       -0.51942366 0.106752254 -0.23316899 0.12506647
000230 15 b6 f2 bd 42 39 f6 bd 00 df 57 3d 21 2f c0 3e
       -0.11851136 -0.1202264 0.052702904 0.37535957
000240 e6 08 43 be 46 7f 05 3e 7c c7 49 3e a7 31 19 be
       -0.19046363 0.13036832 0.19705003 -0.14960347
000250 62 9d ce 3a 57 5c 0c 3f f4 16 ef 3d 80 75 02 be
       0.0015763456 0.548284 0.116743 -0.12740135
000260 46 ea 83 be 64 13 f7 bd 7f 68 8d 3d 28 bf 93 be
       -0.25764674 -0.12064245 0.06904697 -0.28856778
000270 b5 f6 f3 bd c0 c9 82 be 2b 2e f6 be 20 fc 97 3e
       -0.1191229 -0.25544548 -0.48082098 0.29684544
000280 32 74 68 bc 6f c8 e9 3d a4 ca 34 bc f0 fd 3d bf
       -0.014187859 0.11415183 -0.011034641 -0.742156
000290 3e 9a 41 bf 8a 51 20 3d 0b b8 74 3d 6d 91 3f bd
       -0.7562598 0.03914026 0.05974583 -0.04676955
0002a0 6d 77 11 bf 12 37 29 3e 77 8f b5 3f 1b 62 46 3f
       -0.56822854 0.16524914 1.4184407 0.7749345
0002b0 d7 0b db bd ae 70 fc 3e 8c 5c be 3d 65 8f 22 bf
       -0.10695618 0.49304718 0.09294996 -0.6350005
0002c0 37 0d 64 be fc 16 c2 bc 23 ab 6b be 24 10 21 be
       -0.22270666 -0.0236926 -0.23014502 -0.15728813
0002d0 e9 48 ef be 43 8f 14 3f a5 3c 27 be dc 7d 5c be
       -0.46735314 0.580311 -0.16331728 -0.21532387
0002e0 fc 80 a6 bf 55 8f 5d 3d c0 9f 44 3e aa cc f7 bd
       -1.3008113 0.05409177 0.19201565 -0.120995834
0002f0 ae ac 6e 3f 0b 7c 54 bf 14 1f d4 bb b3 8f 35 be
       0.9323224 -0.83001775 -0.0064734314 -0.17730598
000300 b2 fb 15 be 53 8d e3 3e 7b 0c f3 3b 30 ff c5 3e
       -0.14646795 0.4444376 0.0074172593 0.38671255
000310 72 74 f5 be 5b 53 bd 3d a6 f1 60 3f 87 2c 01 3f
       -0.47940403 0.092444144 0.87868726 0.5045857
000320 4c 29 43 be 2d 59 4a 3e 93 b5 82 3d be 5d 37 3e
       -0.19058722 0.1976058 0.06382289 0.17906854
000330 8a 76 a4 bd e6 7e 4d be 1e 15 de 3c 6e 1c 2d bf
       -0.08030422 -0.20067939 0.027109679 -0.67621505
000340 a5 41 ac be 32 c8 32 bc e6 1e 77 3c 25 5c 16 bd
       -0.33643833 -0.010911988 0.01508305 -0.03670897
000350 2b 58 ed be 41 5c 4e bf b3 23 79 3b 22 e5 42 be
       -0.4635633 -0.8060952 0.0038015663 -0.1903272
000360 4e 7f 5f 3e 48 0b fc 3e a7 9f 2b 3f 13 42 00 bf
       0.21825907 0.49227357 0.67040485 -0.5010082
000370 4a bb b7 bd 39 08 a7 be 54 c5 27 3f e8 2c c1 be
       -0.089712694 -0.3262346 0.65535474 -0.37729573
000380 05 b5 ae 3e ea 4e 21 3e 7a 20 3f 3f f1 f1 24 3e
       0.34122482 0.1575276 0.7465893 0.16107918
000390 89 a4 79 3f e8 32 b9 3e 2c c6 e8 bd ef 7c c4 3e
       0.97516686 0.3617165 -0.11365923 0.38376567
0003a0 4d 44 84 be f3 c1 2d bf de f4 85 bf 79 d7 80 bc
       -0.2583336 -0.6787407 -1.0465353 -0.015727745
0003b0 e2 d5 bb be 0d 09 1c bf 8c b9 3d be 21 23 6a bf
       -0.36686617 -0.6095131 -0.18527812 -0.9145985
0003c0 ec 4e c4 be e2 8c ac be 06 53 3f 3f 87 0c bb be
       -0.38341463 -0.33701235 0.7473606 -0.36532995
0003d0 73 9b ed be d1 aa de bd eb ae e2 bd 6b 3a 5a 3f
       -0.4640766 -0.108724244 -0.11068519 0.8524539
0003e0 d0 f8 36 bf 93 9a 34 3d 12 98 5f 3e f7 67 29 3f
       -0.7147341 0.044092726 0.21835354 0.6617426
0003f0 9a f8 2d 3f 83 db 26 3e bd 8d b3 3e 9e f6 c0 bd
       0.6795746 0.16294675 0.35069075 -0.094220385

master1 f4 [1, 1, 24]
000000 61 5e 80 be 36 1c 16 3f d6 39 bb be d0 45 6e 38
       -0.25072005 0.58636796 -0.36567563 5.680864e-05
000010 ab bf e2 3e 14 bb 66 be db 9f 01 bf f5 96 ba 3d
       0.44286856 -0.22532302 -0.50634545 0.09110824
000020 48 f8 9d 3f 78 27 8a 3f b9 e4 04 3e 2e 94 bb 3f
       1.2341394 1.0793295 0.12977876 1.4654596
000030 48 87 72 3f 87 5c 75 3f 7a d9 67 3d 2d 37 62 bd
       0.9473767 0.9584431 0.056603886 -0.0552284
000040 d5 2e ef bd 2e 89 c0 be be dc 9f 3f 1d 3d d0 be
       -0.116788544 -0.3760466 1.248924 -0.40671626
000050 fa 51 ad be fb 7b 4e 3f a3 9b 8b b8 cd ba 8a 3f
       -0.33851606 0.8065793 -6.657026e-05 1.0838257

master2 f4 [1, 1, 24]
000000 c9 52 f8 be dd 63 02 3f e2 a4 d1 3d ec b2 85 3e
       -0.4850066 0.5093363 0.10236527 0.2611307
000010 54 22 90 be 42 a1 2c 3e 6c 9e cb 3e 09 69 83 3f
       -0.2815119 0.1685839 0.39769304 1.0266429
000020 b6 c9 11 bf 16 79 70 bf ce 0a dd 3e 26 19 16 3e
       -0.5694841 -0.9393476 0.43172306 0.14658031
000030 16 19 db 3e 90 de b3 3f fb 80 b8 3e 0c a5 16 bf
       0.42792577 1.4052296 0.36035904 -0.5884559
000040 a5 32 6e 3c 01 45 02 3f f8 44 e3 bf b9 ee 44 bf
       0.014538442 0.5088654 -1.7755423 -0.7692676
000050 2e 94 a7 3f c7 e0 15 bf 72 c3 a3 3e e0 9a 90 3f
       1.3092096 -0.5854611 0.3198505 1.1297264

encoder.0.conv1.weight f4 [32, 1, 2, 3]
000000 bc 2c 8d be 3c 97 8a bd b7 b0 3d be c5 4e 95 bd
       -0.27573192 -0.06767127 -0.18524443 -0.07290415
000010 3b a9 98 be f2 ba 28 3e 3b 9a b5 be 1c 8d f1 3a
       -0.29816613 0.16477564 -0.3546923 0.0018428895
000020 06 96 2b 3e 90 14 07 be 27 61 70 3e 2d f9 5a 3d
       0.16756448 -0.13191438 0.2347456 0.05346029
000030 02 a3 87 3e 8e 19 83 3e d6 52 35 be 1c bd eb 3d
       0.26491553 0.25605434 -0.1770738 0.11510679
000040 14 48 3e be 7a 5b cc 3d 20 8e 61 be e1 31 38 3e
       -0.18582183 0.09978385 -0.22026873 0.17987777
000050 b5 ed 93 3d 53 77 33 be 75 e6 5e be e7 a1 9e 3d
       0.072230734 -0.17525987 -0.217676 0.07745724
000060 a2 d8 b8 3e 41 17 29 3e 33 cf 8f bd 48 e3 99 bc
       0.36102778 0.16512777 -0.07021942 -0.018785134
000070 af 89 6a 3e 55 eb 8e be 2a ce 0a 3e ac 58 fa bd
       0.22904085 -0.2791392 0.13555208 -0.12223944
000080 0b 7e 82 3e 58 e4 f8 bd 7e fd aa 3c a9 39 18 3e
       0.25486788 -0.12152928 0.020872828 0.14865746
000090 eb d9 81 3e f0 2f b3 bd 75 79 ae 3e 55 d9 b7 be
       0.2536157 -0.08749378 0.3407704 -0.35908
0000a0 c4 57 c8 bd c4 24 d5 be 0a 45 72 3d f5 05 1f 3e
       -0.09782365 -0.41629612 0.059147872 0.15529616
0000b0 6c 1c 0d be 8e 0f 55 3e 61 aa 8a bc f8 03 9f be
       -0.13780373 0.20806715 -0.016926946 -0.31057715
0000c0 93 a4 96 3e 08 75 51 3e c2 89 3f 3e be b2 8e 3e
       0.29422435 0.204548 0.18704894 0.27870744
0000d0 69 b5 c8 3d f7 e7 2b 3e 0d 48 c0 3e ff bc 49 bd
       0.09800226 0.16787706 0.3755497 -0.049252506
0000e0 c1 e3 8c be 8a f4 20 be 2e 00 50 bc 60 f7 89 b8
       -0.27517512 -0.15718284 -0.012695355 -6.578746e-05
0000f0 4c 45 14 bd 8d c0 4c 3e 99 46 d2 3d 12 f2 a8 be
       -0.0361989 0.19995327 0.10267372 -0.32997185
000100 3c 4b 19 be c0 c8 ed bd 68 8c 7e 3e b1 ed 16 be
       -0.14970106 -0.11610556 0.24858248 -0.1473911
000110 4a 24 3e be cf b2 d4 bc d7 4b 1d bd 73 95 38 bd
       -0.1856853 -0.025964169 -0.038402405 -0.0450644
000120 ec 8c d5 be 3f 59 b2 3e c4 11 4c 3e 26 30 41 be
       -0.41709077 0.34833714 0.19928652 -0.18866023
000130 0d bb 80 be 44 7e 9a 3c cb ee 81 3e 9d 4f 85 be
       -0.25142708 0.018859036 0.25377497 -0.26037303
000140 db 7a e2 bd 64 85 0c 3e fe 94 8b be 2b d1 80 bd
       -0.11058589 0.1372276 -0.2726211 -0.062898956
000150 f1 af ab be a4 72 b1 3e 16 2b 41 3e 24 96 c9 be
       -0.3353267 0.34657776 0.18864092 -0.3937236
000160 82 0e 7f be 60 55 f6 3d a8 82 84 3d c5 dd 15 3e
       -0.24907878 0.12028003 0.06470233 0.1463538
000170 5c 63 99 be 7b 64 41 be 5d ee 23 3e 9b 82 91 be
       -0.29958618 -0.18885987 0.16008897 -0.28419957
000180 67 c1 8f bd 16 6b 37 3e 6f c3 63 3e cd d8 ae bc
       -0.070193104 0.17911944 0.22242521 -0.021343613
000190 36 6e bc 3d 96 61 1d 3e 9b 39 a5 bd c6 50 10 be
       0.092007086 0.15369257 -0.08067628 -0.14093313
0001a0 92 22 8b 3e 10 12 be 3e ce 36 39 3e 1f 34 37 be
       0.27174813 0.37123156 0.18087313 -0.17890976
0001b0 cd 72 6f be b7 45 91 be 3b 2f a9 bb 1b f0 d3 bd
       -0.23383637 -0.283735 -0.005163101 -0.10348531
0001c0 ab ea 9d bd d7 c9 4e bd 90 a8 b5 3e 22 69 78 3e
       -0.07710775 -0.05048546 0.35480165 0.24258855
0001d0 8e 36 1c bd 56 4b 0f be 6f 7d 2d 3e 32 9f 8b bd
       -0.038137965 -0.13993582 0.1694238 -0.068174735
0001e0 a8 ac c4 be 21 3f 10 3e 72 dd cc 3e 60 12 93 be
       -0.38412976 0.14086582 0.400127 -0.28724957
0001f0 56 a1 2c bd 60 d5 07 3e 37 7b a8 be 8b 40 ad be
       -0.04214605 0.1326499 -0.32906505 -0.33838305
000200 8c d0 9c 3e 7a f3 0d be 9a 28 7a 3e ef 63 29 3d
       0.3062786 -0.1386241 0.24429551 0.04135507
000210 a0 13 9a 3d b6 11 95 be e6 cd d5 bd 58 14 7f 3e
       0.075232744 -0.29115075 -0.10439663 0.24910104
000220 4e 8c 33 3e 36 88 08 be 33 15 4f 3d 7b 25 a3 3e
       0.1753399 -0.1333321 0.050557327 0.31864533
000230 6a 56 b8 be 45 4c 71 3e 3c 19 13 be 2f 3e cb bd
       -0.3600343 0.23564251 -0.14365095 -0.0992397
000240 30 a8 24 3e ce 37 b9 be 87 f9 ae bd 63 b7 b6 3e
       0.16079783 -0.36175388 -0.08543687 0.35686788
000250 80 ab f9 3d 50 f4 35 be a2 64 b5 bd c7 5a 8f 3e
       0.12190914 -0.17768979 -0.08857085 0.27998945
000260 53 af 35 3e 29 8c 84 3e 9a 0f 8c be 88 f6 c4 3d
       0.17742662 0.25888184 -0.27355653 0.096173346
000270 d9 53 3d 3d de de 35 3d 67 d6 b2 3e 4b 64 57 3e
       0.04622254 0.044401996 0.349292 0.21034352
000280 5f ab 79 3e 3b 8d 1d 3e 3d 02 50 3e 70 fe 68 bc
       0.24381779 0.15385906 0.20313354 -0.014220819
000290 e4 f4 8d be 93 d7 67 be 70 f0 3c be a7 ee 3a be
       -0.277259 -0.22640829 -0.18451095 -0.18255101
0002a0 c1 a1 35 3e ca f1 f8 3d 5c ca dc bd 3b 92 a2 be
       0.17737485 0.121554926 -0.107807845 -0.3175219
0002b0 fc e3 c1 3e 60 b2 8a 3e 0f 09 54 3e b3 61 d8 3e
       0.3786925 0.27089214 0.2070658 0.4226204
0002c0 74 04 52 be 3a 40 57 be 85 87 5d be 4c af 6a 3b
       -0.20509511 -0.21020594 -0.21633728 0.0035810051
0002d0 c0 67 a9 be ba 38 b2 3e ce ee ee 3c 65 b0 52 3e
       -0.33086967 0.34808904 0.029166605 0.20575102
0002e0 d5 1c 6c be 5f e3 1a bd 23 7f c4 3c ef 0f 12 be
       -0.23057874 -0.037814494 0.023986405 -0.1426389
0002f0 37 de b3 3e 07 39 5b be 79 56 c4 3d 5e 09 97 be
       0.35130474 -0.21408473 0.09586806 -0.29499334

encoder.0.conv1.bias f4 [32]
000000 3a 5a 10 b7 1e 23 e1 b9 eb 53 bb 38 41 95 45 39
       -8.604076e-06 -0.0004294151 8.932486e-05 0.00018842985
000010 17 a4 71 b9 96 ee a7 b8 5c bf 69 38 cd 12 ff 38
       -0.00023044679 -8.0076206e-05 5.5729746e-05 0.000121628495
000020 ae c1 6a b7 26 ce c3 39 51 92 03 39 5a 7d 2a 38
       -1.3992581e-05 0.0003734689 0.0001254764 4.06479e-05
000030 8e 6f e2 39 da b9 fe 36 45 3c b6 39 4a b3 06 b9
       0.00043189194 7.591426e-06 0.0003475865 -0.00012846026
000040 56 2f 12 39 e6 93 65 b7 11 82 14 b9 f3 2b 86 38
       0.00013941279 -1.3683899e-05 -0.00014162833 6.397804e-05
000050 28 5e 10 b9 04 36 01 38 a8 ae e6 b8 49 b6 c2 38
       -0.00013767986 3.0806303e-05 -0.00010999787 9.284594e-05
000060 eb 96 a3 39 69 31 f0 b7 47 aa 1a 34 bf b8 4f b8
       0.00031202225 -2.8633238e-05 1.4404314e-07 -4.9524704e-05
000070 b0 63 b1 b9 42 26 a3 b8 a3 ff cf b9 43 7d c2 38
       -0.00033834344 -7.779572e-05 -0.0003967258 9.273973e-05

encoder.0.bn2.weight f4 [32]
000000 de 39 68 3f 36 b4 82 3f 53 a4 6c 3f ab ff 74 3f
       0.907133 1.0211246 0.9243824 0.9570262
000010 6c 3a 68 3f 19 8d 6d 3f 49 7d 6d 3f 01 27 7e 3f
       0.90714145 0.9279342 0.92769295 0.99278265
000020 08 8c 5a 3f 5e 10 76 3f 89 79 6c 3f 50 b6 6f 3f
       0.8536992 0.96118724 0.9237295 0.9363756
000030 7a 35 7c 3f b7 42 71 3f de e2 7d 3f 12 b9 68 3f
       0.985191 0.94242424 0.99174297 0.90907395
000040 03 22 5d 3f aa c3 5a 3f 60 ec 5d 3f cc 05 61 3f
       0.8638002 0.8545481 0.86688805 0.8789947
000050 70 3a 81 3f 6f 9e 81 3f d2 c6 82 3f e4 7a 84 3f
       1.0095959 1.0126475 1.0216925 1.0350003
000060 a3 8a 77 3f fd 3d 69 3f b0 34 5c 3f 1b 84 5d 3f
       0.9669592 0.9111021 0.86017895 0.865297
000070 d8 d1 68 3f fe c4 7f 3f 29 32 83 3f ac eb 72 3f
       0.90945196 0.9990996 1.0249683 0.94890857

encoder.0.bn2.bias f4 [32]
000000 e2 ff 99 bd 52 d6 e8 bc 91 c3 80 3d 56 5d 42 be
       -0.07519509 -0.028422508 0.06287301 -0.18980917
000010 20 1c 57 3e 25 ed 4f bc 6b 18 c8 bd 1e aa 94 3c
       0.21006823 -0.012690817 -0.09770282 0.018147524
000020 5f ac 29 3d 77 86 32 bd ef 9f c5 bd 6c 00 20 bc
       0.04142415 -0.043585267 -0.096496455 -0.009765726
000030 c7 ca 30 be dc b0 8e bd 42 8f 83 bd 49 cc c4 3a
       -0.17264853 -0.06967327 -0.06423809 0.0015014495
000040 26 bd ed 3d 19 eb dc 3d e6 78 83 bc 1f 65 92 3c
       0.11608343 0.10787029 -0.01604886 0.017870484
000050 d2 82 f0 bd 61 ea 00 be 88 4b f6 bd 90 7f 9a 3d
       -0.11743702 -0.12589408 -0.12026125 0.07543862
000060 55 44 08 bd a3 4c a9 bd 3d ee a6 3d 7b 0e cf 3b
       -0.03326829 -0.082665704 0.08150909 0.006318865
000070 e4 1d 40 3e 33 32 58 bd 72 8c 01 be a4 5d b7 bc
       0.18761402 -0.05278225 -0.12651232 -0.022383519

encoder.0.bn2.running_mean f4 [32]
000000 e8 51 41 be d8 5b 01 bc e8 2d c4 3d 65 d4 94 bd
       -0.18878901 -0.007895432 0.095790684 -0.072670735
000010 0f fc ca 3d 23 18 a6 3d b2 74 c0 bd 31 18 31 bc
       0.099113576 0.081100725 -0.09397258 -0.01080899
000020 d7 c3 a1 3e 84 6f f7 bc 02 ff ac bd 61 04 4c bd
       0.31594726 -0.030204542 -0.084470764 -0.049808864
000030 46 1b 98 bd bc f6 a5 bd 2a 04 a9 bd d2 77 d3 bd
       -0.07427077 -0.081037015 -0.08252747 -0.10325588
000040 a2 51 12 3e ac 8a de 3d 6e 55 46 be 53 f1 08 3e
       0.14288953 0.10866293 -0.19368526 0.13373308
000050 4d 8d 29 bc 8f ee 60 bd ac 69 f9 bb 4b 80 21 3a
       -0.01034863 -0.054915007 -0.007611474 0.000616078
000060 2e b8 85 3b 44 af ec 3d 38 cb 89 3e 4f 59 33 be
       0.004080794 0.11556867 0.26912856 -0.17514537
000070 a0 45 09 3e 02 db 98 39 8c 76 96 bb 30 ad 3d bd
       0.13405466 0.00029154873 -0.0045917686 -0.046307743

encoder.0.bn2.running_var f4 [32]
000000 21 20 9f 3e 43 11 a1 3c f3 81 b7 3d 13 0f 71 3d
       0.310792 0.019661551 0.08960333 0.058852267
000010 6a 20 e6 3d 5a b4 7c 3d 0f 2f 42 3e a8 08 75 3c
       0.11236651 0.061695434 0.18963264 0.014955677
000020 d5 78 57 3f 33 8e a0 3c 3c 81 dc 3d 01 3f dc 3c
       0.8416875 0.019599056 0.10766837 0.026885511
000030 20 5c a8 3d 37 77 8a 3d b8 c6 e7 3d c0 a7 c8 3d
       0.082206964 0.0676102 0.113171995 0.09797621
000040 49 02 36 3e 02 f8 e3 3d e9 11 a6 3e 01 78 36 3e
       0.17774309 0.11131288 0.3243554 0.17819215
000050 4c a1 21 3d 55 c5 6d 3d 3b fd fe 3c d9 6a 61 3c
       0.039460465 0.05804952 0.03112661 0.013758385
000060 6b 32 14 3d 79 3d f6 3d a3 f8 1c 3f 08 c8 8e 3e
       0.036180895 0.12023444 0.6131689 0.27886987
000070 ed 57 28 3e 9b 0c 49 3d 93 92 c1 3b 92 6f 3d 3d
       0.16439791 0.049084287 0.0059073656 0.04624898

encoder.0.conv2.weight f4 [32, 32, 2, 3]
000000 3f e9 ec bc a8 42 9a 3d f1 7b b8 3c fe 59 a1 3d
       -0.028919814 0.07532245 0.022520037 0.07878493
000010 06 d9 53 bd 26 96 68 bd 90 a2 02 bc bc 62 a1 bd
       -0.05172064 -0.056783818 -0.007973328 -0.0788016
000020 28 a7 77 bd 9e 4d 79 3d 22 3a 94 3d cd c5 51 bd
       -0.060462147 0.060865037 0.072376505 -0.05121403
000030 d5 44 fa 3c 25 a9 9d bc 15 3a 27 3d 96 99 4c bd
       0.0305504 -0.019245693 0.040826876 -0.04995116
000040 8d 3c a0 bd 1e 6c 2b bd 48 26 c4 3a 2b 02 00 bd
       -0.07824049 -0.041851155 0.0014965022 -0.031252068
000050 60 83 37 3c f2 fd 5c bd af b3 df bc 02 cd 18 3d
       0.011200756 -0.05395312 -0.02730736 0.037304886
000060 fa b8 6f bc e8 23 bf bd b9 09 d0 3c b8 dd 7c bd
       -0.014631504 -0.093330204 0.025395261 -0.061734885
000070 76 4c 0f 3d 71 77 61 3d 3e db cb bc 2d 1e d8 3b
       0.03498503 0.05504555 -0.024884816 0.006595394
000080 af d5 4c 3d 99 36 b3 bb 45 7f 54 bd bc 41 21 3d
       0.050008472 -0.005469155 -0.051879186 0.03936933
000090 ff 49 27 3d f5 1d 36 bd 41 2b 0f bd 53 f8 00 bd
       0.040842053 -0.044462163 -0.03495336 -0.03148682
0000a0 8a f9 79 3c b2 1d 19 bd 46 2e f2 bc 63 9c 44 bd
       0.015257249 -0.037381835 -0.02956308 -0.048000704
0000b0 2e 73 b6 bd 91 6d af bc 64 1c aa bd 6e 64 6e 3c
       -0.089086875 -0.02141455 -0.08306196 0.0145503115
0000c0 64 b4 c8 3b 91 79 65 3d f8 64 7d 3d 73 a3 ea 3b
       0.00612502 0.056024138 0.06186387 0.007160598
0000d0 73 d3 df bc 1f ba 4c 3d 69 69 86 bc 43 7b 1c 3d
       -0.027322507 0.049982186 -0.016407685 0.03820349
0000e0 ef 81 4b bd 68 55 78 3d c4 8a 40 bc 81 66 84 bd
       -0.04968446 0.060628325 -0.011751834 -0.064648636
0000f0 e9 5c 3c bd 53 16 72 3d 29 df 49 3c 26 6f 1c 3c
       -0.045987044 0.05910332 0.012321272 0.009547984
000100 db 01 a2 3c 30 48 a8 3b 5d c8 cc bc 24 f6 a7 bc
       0.019776275 0.0051355585 -0.024997884 -0.020503111
000110 ff e5 97 bc 0a 44 6d 3d 87 1f 7c bb 5a a1 3b bd
       -0.018542288 0.057926215 -0.003847094 -0.045808174
000120 cd e4 00 bc 7e ee e9 3c 4c ea 6d 3d 2b 30 e2 3c
       -0.00786705 0.028556105 0.05808477 0.027610859
000130 96 cd 50 bc b5 12 2e 3d de c3 a3 3d 0a f9 06 3d
       -0.012744328 0.04249831 0.07996343 0.032952346
000140 17 68 95 bc 93 74 5b 3d 0f 9f 2d 3d 14 0f 0b bd
       -0.01823811 0.05357797 0.04238802 -0.033949926
000150 a4 dc b6 3c c0 7a d1 3c ee 8b 96 bc e5 ca c4 bc
       0.022322007 0.025571227 -0.01837727 -0.024022529
000160 d4 9c 7b 3d ce ff 39 3d d0 d2 40 bd 5c 83 3f 3d
       0.06142886 0.04540997 -0.047076046 0.046756133
000170 dc ee e6 3a bd bb 4f 3d 3e f3 18 bc 2b dd 9b 3c
       0.0017618793 0.05071615 -0.009335337 0.01902636
000180 3e c2 2d 3c 74 5c 6d 3d d5 f8 19 3d 63 8c ef bc
       0.010605393 0.0579495 0.03759082 -0.029241746
000190 db 5d 30 3d 26 5f 0e 3c 3f 4b 10 3d 63 b3 19 bd
       0.043058258 0.008689677 0.03522801 -0.037524592
0001a0 8b a1 b8 bc 38 2f 76 3d cf bd e8 3c 5c 87 bb 3c
       -0.022537967 0.060103625 0.02841082 0.022891693
0001b0 f7 ac 9e 3c a9 5f 67 3c 61 8c f1 3b 39 da 4b bd
       0.019369585 0.014121928 0.007371471 -0.04976866
0001c0 fe 9b 9e 3d 0c 8a 92 3d 4f 31 76 bd ad 40 15 3c
       0.07744597 0.071552366 -0.060105618 0.009109658
0001d0 57 a7 69 3d 48 fd e2 3b 20 7a e0 3c 03 b7 59 3d
       0.057044353 0.006927166 0.027401984 0.05315305
0001e0 2d 3e 60 3d c0 d8 10 3c 80 04 e8 bc fa 09 6f bd
       0.054746795 0.00884074 -0.028322458 -0.058359124
0001f0 94 34 bc bb 0f 5d 08 3d 77 b9 7b bd 40 16 0c 3d
       -0.0057435725 0.033291873 -0.06145617 0.034200907
000200 42 e0 57 3c 59 ba b0 bb e0 41 e9 bb 51 99 29 3d
       0.013176026 -0.005393308 -0.0071184486 0.04140598
000210 22 93 53 bd d6 a3 02 bd 80 94 10 bd 94 f2 d0 3c
       -0.05165399 -0.031894527 -0.03529787 0.025506295
000220 1f bb 82 3b 16 00 ab bc 57 e5 af bd e4 af 86 3c
       0.0039895917 -0.020874064 -0.08588665 0.016441293
000230 de cd 28 be 07 42 c7 bb ed fd c2 bd 03 32 f4 bd
       -0.16484782 -0.006080869 -0.09521089 -0.119236015
000240 e3 d9 5f bc 1f 17 b4 bc 1e 06 b9 3c b2 a4 4c 3d
       -0.013662788 -0.021983681 0.022585925 0.049961753
000250 85 88 98 3d 5d 79 76 bd 3c e9 94 bd 54 80 b3 3c
       0.07447914 -0.060174335 -0.072710484 0.021911778
000260 f9 e3 f3 3c f5 a4 d9 3c ca aa 3a bd 4a 0f 91 3d
       0.029771792 0.026567915 -0.045573033 0.07082994
000270 ec 4b 91 bd 30 a8 55 3c 68 d7 d2 bc 0e 7e d9 bc
       -0.07094559 0.013040587 -0.02573748 -0.026549365
000280 97 bb 7f 3d 99 b1 90 3d 2a a5 16 3d 9c 51 1b 3d
       0.06243476 0.07065124 0.036778606 0.037919626
000290 7e f5 c2 ba 4c 52 00 bd ec d8 86 3c 0a ba 4e 3d
       -0.0014874188 -0.031328484 0.016460858 0.05047039
0002a0 30 87 9a 3c 71 a2 87 bd 92 c3 34 bc 21 13 f7 3c
       0.01886329 -0.0662278 -0.011032956 0.030160489
0002b0 ec 3d 2f bc 90 cc 92 bc 58 b7 8b bd fa 58 2e 3c
       -0.010695916 -0.017919809 -0.068220794 0.010641331
0002c0 66 0b 46 3b 73 0e a1 bd 26 ac bf bc 3b 4e 03 3c
       0.0030219196 -0.07864084 -0.023397516 0.008014257
0002d0 7a 27 42 bc 74 de 83 3d f4 43 a9 bd 29 0b 6f 3c
       -0.011850232 0.06438914 -0.08264914 0.014590063
0002e0 d2 fb 09 3c 37 16 47 3c e8 2f b8 3b 8c 85 66 3d
       0.008421855 0.0121512925 0.0056209452 0.056279704
0002f0 76 41 c3 3c 19 44 32 bd 13 8c 56 3c 29 73 db bc
       0.023834925 -0.043521974 0.01309492 -0.026788311
000300 95 5b 4f bd fd 9c d0 bc 33 08 bb 3c 4f 37 2e bc
       -0.05062445 -0.025465483 0.022831058 -0.010633304
000310 83 f7 b7 bc 5a dc af 3c 16 4f 86 3d c7 51 4f bd
       -0.02245689 0.021467377 0.06558053 -0.0506151
000320 c9 00 64 bd 38 1b a9 bb 8c 1e 39 bd 2f 59 03 3d
       -0.05566481 -0.0051607154 -0.045195147 0.032067474
000330 dd ee 00 bd 44 e4 9f bc 44 79 72 3d ba e5 54 bd
       -0.031477798 -0.019518025 0.05919768 -0.051976897
000340 2a c0 b4 bc fd 2f 82 3d dc 23 16 bd c8 30 16 bd
       -0.022064287 0.06356809 -0.036655292 -0.036667615
000350 6c 78 09 3d b9 c1 b0 bc 2f 54 d9 3c 46 46 f5 3c
       0.03356211 -0.02157675 0.0265294 0.029940736
000360 7f 83 4d 3b d4 c9 76 bd 5b 42 47 bd c2 33 77 bd
       0.0031358895 -0.060251072 -0.048647266 -0.060352094
000370 18 97 6e bd f3 67 65 bc 6b 59 93 3b 99 05 91 bd
       -0.058249563 -0.014001834 0.0044967434 -0.07081146
000380 0a 43 83 bd 4c ba 84 3b 5f 28 a7 bc 11 a0 4c 3c
       -0.06409271 0.0040505286 -0.020404993 0.012489335
000390 99 3a 9b 3c 5c 0e 82 3d b9 10 2b bb d5 13 2c bd
       0.01894884 0.06350395 -0.0026102497 -0.0420111
0003a0 5a df a1 bc 9a 1b 58 bd 06 1a de bc 72 39 24 3c
       -0.019759823 -0.052760698 -0.027112018 0.010023462
0003b0 41 e2 ff 3a d1 15 f0 3c 53 9f d5 3c df e3 cf 3c
       0.0019522385 0.029307278 0.026076948 0.025377212
0003c0 97 2c 1f bc 0b 72 02 bd c0 b1 61 3c de 25 c3 ba
       -0.009715221 -0.03184704 0.013775289 -0.0014888605
0003d0 e4 14 ed bc 01 0a 32 3d 34 03 c7 bd 44 87 85 3c
       -0.028940625 0.04346657 -0.09717408 0.016299851
0003e0 5f 57 1b bd d2 d8 26 3d 50 b7 8c 3d c0 48 76 3d
       -0.03792512 0.04073412 0.068709016 0.060127974
0003f0 4c d4 09 3d 74 72 04 bd 53 27 bf bc 2b 89 18 bb
       0.033649728 -0.032335714 -0.023334181 -0.0023275118

encoder.0.conv2.bias f4 [32]
000000 95 c5 c4 bc 41 e4 ab 3d 9a 45 6f 3d 1b 6e 19 be
       -0.024019996 0.08393145 0.058415987 -0.14983408
000010 b1 16 8e bd b6 6e 41 3d 1c 54 9b bd b3 54 07 3d
       -0.06937922 0.047224723 -0.07584402 0.03303976
000020 2a 20 b6 bd 3d dc 8f bd d7 30 dc bd 17 3f 23 bd
       -0.088928536 -0.07024429 -0.10751503 -0.03985509
000030 7a 46 a4 3d 6c d8 cb bd ef 6e 1b be 16 3d e3 bd
       0.08021255 -0.099533886 -0.15179037 -0.110956356
000040 13 05 84 3d 7b ee 7c bb 28 ad 6d bb 93 91 cf bd
       0.0644628 -0.0038594294 -0.003626654 -0.10135188
000050 75 de 17 3d e2 bb 5b 3d 8f c6 09 be f9 23 9e 3d
       0.037077386 0.053645976 -0.1345465 0.07721705
000060 15 cd 19 be d6 b3 96 bd 61 e5 d1 bc 91 3f b6 ba
       -0.15019639 -0.0735852 -0.025622072 -0.0013904442
000070 34 18 cd ba 07 f5 57 3d 86 88 61 bd 98 b7 21 3c
       -0.0015647472 0.05272391 -0.05506184 0.009870432

encoder.0.conv_downsample.weight f4 [32, 1, 1, 3]
000000 64 08 0e 3e e0 cc f3 bc aa f2 25 be 45 fa 20 be
       0.13870388 -0.029760778 -0.1620585 -0.1572047
000010 cc 67 98 3e 2d 11 94 be 9d 80 c4 3e be be 28 3e
       0.2976669 -0.28919354 0.38379374 0.16479012
000020 a9 b6 cf 3d ee 3a 53 be 22 76 f0 be 50 32 cb be
       0.101422615 -0.20627949 -0.46965128 -0.39686823
000030 12 dd 18 bf 4a ee cd be 67 05 12 bf 8a 89 6f 3e
       -0.59712327 -0.40220863 -0.57039493 0.2339231
000040 54 28 00 bf 3f d8 b6 be a9 dc 01 bf 9e 6f cb 3e
       -0.50061536 -0.35711858 -0.50727326 0.39733595
000050 32 d8 3c 3e b4 39 1f 3d 83 3d 3d be b6 c2 ab bc
       0.18441847 0.03887339 -0.18480496 -0.020966869
000060 d5 b2 eb 3e 09 34 05 3e f0 58 8d 3e 07 0d ad 3d
       0.46034876 0.13008131 0.27606916 0.084497504
000070 51 a2 55 be f1 32 0f be e4 db a7 be 03 8a 90 3e
       -0.208627 -0.13984276 -0.3278495 0.28230295
000080 92 03 cb be b9 6a 33 be 48 06 51 be 45 e5 80 3e
       -0.3965116 -0.1752118 -0.20412552 0.2517492
000090 f1 87 7c bd 1f c6 c9 3e 98 70 b2 3e ec c0 c8 3e
       -0.06165308 0.39408967 0.34851527 0.39209688
0000a0 65 91 3b be e0 69 bd be 82 8f 91 3d b0 c2 54 3e
       -0.18317182 -0.3699484 0.0710745 0.20777392
0000b0 90 df a6 be 83 b4 fe be 32 d3 5f 3e 44 a0 cf 3e
       -0.3259244 -0.49747095 0.21857908 0.4055196
0000c0 ef ad 9f 3d 29 7a 19 3e ed e2 43 be 27 bc 14 bf
       0.07796847 0.14988007 -0.19129534 -0.580996
0000d0 e6 e0 d0 be fb 5d fa be a3 01 13 bf 7f dd be be
       -0.40796584 -0.48899826 -0.5742437 -0.37278363
0000e0 92 23 c6 be fe d1 0d bd b4 b1 77 3e ce d3 df 3d
       -0.38699013 -0.034624092 0.24188882 0.109290704
0000f0 6a b7 95 3e 6b fc 85 3e 6b 4e db 3c ca 0d 9a 3e
       0.29241496 0.26169142 0.026770791 0.30088645
000100 60 4e 93 3e 1c 1e 10 bf 8f b7 bd 3e 30 2f 76 3e
       0.28770733 -0.56295943 0.37054107 0.24041438
000110 3b 19 84 3c fc de ab be 9b de 87 be 1c b0 2b 3e
       0.016125312 -0.3356856 -0.26537022 0.16766399
000120 16 85 9c be ee 9f bb be 05 c2 00 bf d4 9f 3f 3e
       -0.30570287 -0.36645454 -0.5029605 0.18713313
000130 97 f3 8a 3d b3 47 d5 3e c3 f8 98 3b 68 cb af 3e
       0.06784742 0.41656265 0.0046683266 0.34334874
000140 5a 80 a4 3e c7 4a 03 bf 42 a3 8a 3e 5e 4a 8f be
       0.32129174 -0.51285976 0.2707768 -0.27986425
000150 4c 00 ae 3e 04 45 5d be 42 59 d3 bc 30 ec 03 3f
       0.33984601 -0.21608359 -0.025799397 0.5153227
000160 79 6d f7 be 3e f2 5d 3e 00 0b 0e 3f 3d b3 ce be
       -0.48325709 0.2167444 0.55485535 -0.40371123
000170 70 42 eb 3d ae 05 41 be ec 42 75 3e d1 93 a9 be
       0.11487281 -0.18849823 0.2395131 -0.33120587

encoder.0.conv_downsample.bias f4 [32]
000000 bc c9 73 3e cb 3b 6a 3e 87 c5 82 3e 86 42 bb 3e
       0.23807424 0.22874372 0.25541326 0.3657419
000010 7e f8 fc be 5c f9 08 3f c9 27 f3 3e ea 13 04 3f
       -0.49408334 0.5350549 0.4749129 0.51592886
000020 d2 40 7d be 2d 7e c3 3e 11 ba 96 3d 2b 89 0b 3f
       -0.24731758 0.38182202 0.07359708 0.54506177
000030 0d fd 33 3e 4d 4e 0a bf 9d 8e 0b be f0 35 71 3d
       0.17577 -0.5402573 -0.13628621 0.05888933
000040 1a f9 90 3e ef d3 08 bf 22 eb bd be 01 8e 08 3e
       0.2831505 -0.53448385 -0.37093455 0.1333542
000050 49 d2 51 be fc 2e f1 3e c3 3f 9e 3e a9 85 08 3f
       -0.20490374 0.4710616 0.3090802 0.5332895
000060 c2 97 3c bf 78 78 b0 3c 7e c4 0e bf 8c 1b af be
       -0.73669064 0.021541819 -0.55768573 -0.34200704
000070 7a 7a cd be f1 aa 00 3f 1b bb c0 bd 17 70 1e be
       -0.40132505 0.50260836 -0.094106875 -0.15472446

encoder.1.conv1.weight f4 [32, 32, 2, 3]
000000 ac a2 08 bd 8e f2 67 bd ae d4 46 3d bc 05 a2 3c
       -0.03335826 -0.056627803 0.04854267 0.019778125
000010 0b cb 8b bd 89 53 45 bd 6b f5 de 3c c7 42 3c 3a
       -0.06825837 -0.04817537 0.027216634 0.00071815815
000020 e6 0d 23 3d 82 4c 4c 3d f5 11 5f 3d f9 85 ad bd
       0.039808176 0.04987765 0.054460485 -0.08472819
000030 a5 6d 28 bd 66 9f 1e 3d f0 aa 90 bc 0c e0 56 bd
       -0.04112019 0.038726233 -0.017659634 -0.05245976
000040 1a 2f 4a 3c 45 f7 21 bc ca 7f 52 bd 72 9c 3f 3d
       0.012340331 -0.009885614 -0.0513914 0.046780057
000050 87 18 e1 bc 61 08 91 bc 2a 8d 07 bd 29 8c 4b bd
       -0.027477516 -0.01770419 -0.03309361 -0.049694214
000060 ab 0a 18 3d d9 6f ed 3d d7 e9 bd 3d 64 1d e7 bc
       0.03711955 0.11593599 0.09273117 -0.028212257
000070 b0 aa 08 3d e6 46 a4 3c 2b 81 48 bc a7 ad 9a 3b
       0.033365905 0.020053338 -0.012237827 0.004720408
000080 b5 c6 47 bd 45 c6 25 bd c0 ba 44 bd 7d fe ef 3c
       -0.048773486 -0.040472288 -0.04802966 0.029296154
000090 f1 74 ca 3b 73 89 93 bd f1 81 26 bd d3 a9 c9 bb
       0.0061784913 -0.07203951 -0.040651266 -0.006154278
0000a0 3d cc 35 3c 90 b8 a5 bd 95 44 aa bb 74 ae 8e bc
       0.0110960575 -0.08091843 -0.005196164 -0.01741717
0000b0 c0 d2 8e bc a5 5e 12 bd e4 0e 03 bd d9 9b d9 bc
       -0.017434478 -0.03573479 -0.031996623 -0.026563572
0000c0 ed 27 ae 3c bd 3f ce bc 55 e2 6b 3d a0 82 07 3d
       0.021259272 -0.025176877 0.057588894 0.033083558
0000d0 22 5a a7 3d 82 2b a1 3d 41 6c 96 bd 70 6c e2 3c
       0.08171488 0.078696266 -0.073448665 0.027639598
0000e0 62 9d 6e 3d cb 73 35 3d 6b 5c 3b 3c 7d a6 bb bd
       0.05825556 0.044299882 0.011435608 -0.091626145
0000f0 6e b6 cd 3c 34 28 5b 3d a4 00 1b 3d 7d 5b 9d bc
       0.025111403 0.053505138 0.037842408 -0.019208664
000100 f8 c1 d5 bb 23 c6 4a bd 34 6a ba 3c 59 4e 51 bc
       -0.006523367 -0.049505364 0.02275572 -0.012775027
000110 0b 66 5a 3c ba 1e 4b bc bb cb 46 3c c2 e8 ce 3c
       0.013329993 -0.0123974625 0.012133534 0.025257472
000120 26 27 f7 bc 2e 5d a9 3c 34 b6 53 bd 6a ce 55 3b
       -0.030170035 0.020674314 -0.051687434 0.0032624253
000130 15 5e 17 bd 76 bd 38 3d fa b5 47 3c 36 32 f4 bd
       -0.036954958 0.04510256 0.012189383 -0.119236395
000140 bd 5f 01 bd 51 d6 44 3d fa 5f d7 bc 06 0e 4e ba
       -0.031585444 0.04805595 -0.026290882 -0.0007860366
000150 84 40 b3 bc 54 41 ba bd 58 86 f9 3c 7c 38 1e bd
       -0.02188135 -0.090944916 0.030459568 -0.038628086
000160 87 73 7a 3a 0e c9 23 bc ff 5e cc 3d 81 2a 80 3d
       0.0009553958 -0.009996666 0.099790566 0.06258107
000170 28 a1 23 3c 50 cf 21 bd ca ee 8c bd 9b 9b 9c bc
       0.009987153 -0.03950435 -0.06881483 -0.019117167
000180 18 6a 9a 3d 10 a3 03 3b c6 11 5b bd 21 29 ac 3c
       0.07539767 0.0020086206 -0.053483747 0.021015706
000190 87 68 81 3d e6 4d 94 bc b9 3c 11 3d 98 29 16 bd
       0.06318765 -0.018103551 0.0354583 -0.03666076
0001a0 f9 bd 8c 3d 56 da 85 3d ee 66 d4 bd 21 f7 05 be
       0.06872172 0.06535785 -0.10371195 -0.13082553
0001b0 75 98 d6 bb 99 99 6e bb c3 05 ae 3d 02 69 36 3b
       -0.006548936 -0.003640747 0.08497193 0.0027833586
0001c0 69 6d 86 3d fd 59 a7 3d fd 05 46 bc 5c 3b a2 bd
       0.06563837 0.08171461 -0.012086389 -0.07921478
0001d0 d8 b6 14 3d 0c ae 2a 3d bc 91 3c 3d db e4 7e bd
       0.036307186 0.04166989 0.04603742 -0.062229972
0001e0 5d 8a 08 bd 0d f8 64 bd 9e ed fd bb 12 fe e0 3c
       -0.03333508 -0.055900622 -0.0077492734 0.0274649
0001f0 9c d9 57 3d da 9d dd bc 6c 1d 00 bd 9c 07 9c 3c
       0.052697763 -0.027052809 -0.03127806 0.019046597
000200 95 5f b2 bc ed d6 f7 3b 77 05 9e bd c5 23 56 bd
       -0.021774093 0.007563463 -0.07715886 -0.052280206
000210 51 6e 68 bd 89 1c 2d 3d 8b 02 54 bd 58 3c c1 3b
       -0.05674583 0.04226354 -0.051760238 0.005897086
000220 fd a3 a5 bc 61 f3 b6 3b ee 71 cc 3c 5c b5 fe 3c
       -0.020219797 0.0055832122 0.02495667 0.031092338
000230 b0 1d 32 3d c4 fa 70 3c 72 bc 79 bd 29 1d 64 bc
       0.043485343 0.014708225 -0.06097073 -0.013922968
000240 6e ce 46 3d 55 36 b9 3d 56 c2 1d 3d 1d 4b 3f bd
       0.04853671 0.09043566 0.03851541 -0.046702493
000250 70 bc 87 bc bd 5b c1 3c d3 f2 89 3d 38 6e 61 3d
       -0.016569346 0.023603315 0.06735768 0.055036753
000260 de 9e bd bc c1 f0 4e bd ef be c1 3c d5 36 96 bc
       -0.023147043 -0.05052257 0.023650615 -0.018336693
000270 bc e3 1c bd f4 83 39 3d 3b 55 db bc be 84 90 bd
       -0.038303122 0.045291856 -0.02677404 -0.070565686
000280 b0 d9 09 bc d8 7f 30 bd c1 32 67 bc fa 9c 79 3d
       -0.008413717 -0.04309067 -0.014111222 0.06094072
000290 12 96 3e 3d b2 07 d6 bc 60 fc dc bc dd 7f 49 3c
       0.046529837 -0.026126716 -0.02697581 0.012298551
0002a0 81 1c 47 bc c7 95 1b bd 53 4f 34 bd c5 d7 33 bd
       -0.012152792 -0.037984636 -0.044020962 -0.043906946
0002b0 58 84 03 bd 35 72 b1 3d dd f5 84 3c d3 b2 ba 3b
       -0.032108635 0.086643614 0.016230518 0.005697587
0002c0 9c 48 0c 3d 3c 08 a4 3d 1f 6a ef 3c 69 8a a2 bd
       0.034248933 0.08009383 0.029225407 -0.07936556
0002d0 65 c5 23 3d 87 31 34 3d d6 33 88 3d 49 87 bf 3b
       0.039983172 0.043992545 0.06650512 0.0058449847
0002e0 1d 94 2c 3d 72 ae 1b 3d 08 79 17 3d 7a 92 2b bd
       0.04213344 0.03800816 0.03698066 -0.041887738
0002f0 cb 9a 1c 3d 17 a0 dd 3a b1 11 bb 38 76 db 53 3d
       0.03823356 0.0016908672 8.92015e-05 0.051722966
000300 a6 8d 47 bd 01 55 cf bb 19 34 45 bd 69 eb f8 bb
       -0.04871907 -0.006327272 -0.048145387 -0.0075964225
000310 4c a9 9a 3b 51 c0 f1 bc a8 1f ea 3c 10 27 47 bd
       0.004719889 -0.029510649 0.028579548 -0.048621237
000320 3c 51 58 3d c4 f9 92 3d d3 0f c5 3d 84 1f ed 3c
       0.052811846 0.07176545 0.09622159 0.028945692
000330 2b 23 2e bd 08 f6 fb ba 82 34 cc 3c 97 07 1c 3d
       -0.042514008 -0.0019223103 0.024927381 0.038093176
000340 46 ed 0c bd 31 42 ea 38 5c 8c 08 3d 2b 7d 2a bd
       -0.03440597 0.000111703186 0.033336982 -0.041623276
000350 01 88 28 bb 0f c8 29 bd c1 0a 13 3d 79 74 70 bd
       -0.002571583 -0.041450556 0.035898928 -0.058704827
000360 dc b1 85 3d 37 4c 16 3d 4c 50 11 3d e2 0e b8 bc
       0.065280646 0.036693778 0.035476968 -0.022468034
000370 2a 75 bd bd 0c f9 7c 38 29 f7 a8 bb 1c 18 ce bc
       -0.09250863 6.0313425e-05 -0.005156417 -0.02515798
000380 e0 be c9 bb 98 b0 15 3d 39 a1 d6 bc 46 11 8f bd
       -0.0061567873 0.036545366 -0.026199924 -0.069857165
000390 3d bb 1f bd cc 13 a9 bc 45 e1 8b 3c 3b 07 4a 3d
       -0.038996924 -0.020639323 0.01707519 0.0493233
0003a0 23 cf f8 bb 54 32 27 bd e4 99 27 bd 9f 82 73 3d
       -0.007593052 -0.04081948 -0.040918246 0.05945074
0003b0 17 6f b2 bd c9 fa a0 bc 2a cf 19 bd 39 15 33 3c
       -0.08712595 -0.019650834 -0.037551083 0.010930353
0003c0 09 f2 a4 3c f3 63 03 3d 26 8d 14 3d 04 94 83 bd
       0.020134943 0.03207774 0.036267422 -0.06424716
0003d0 f9 9f b5 ba 00 9f ca bb 31 d6 17 3d 4a a6 b5 bd
       -0.001385688 -0.006183505 0.037069503 -0.08869608
0003e0 df fe 82 bd 06 b3 1d 3d 74 55 81 bd 02 a2 9a bd
       -0.06396269 0.03850081 -0.06315127 -0.07550432
0003f0 f1 69 46 bd 38 33 a1 3c 9c 7a 28 3d cc fe 13 3d
       -0.048440877 0.019677743 0.041132554 0.036131665

encoder.1.conv1.bias f4 [32]
000000 aa 6e 9d 36 45 eb 29 38 e6 b5 df 37 70 05 ff 37
       4.6918476e-06 4.051185e-05 2.6668375e-05 3.04009e-05
000010 78 29 04 b8 39 67 e5 b8 bd 12 d7 38 df e7 a4 34
       -3.1509873e-05 -0.00010938798 0.00010255489 3.071609e-07
000020 4e 4c a6 b8 8a ea 4e 37 4e 56 81 b7 38 a6 72 36
       -7.92971e-05 1.2333165e-05 -1.5418187e-05 3.6157562e-06
000030 4a 92 f6 b6 51 4d 67 37 e3 d0 ee b7 f4 e8 ac b8
       -7.3484016e-06 1.3786675e-05 -2.8469081e-05 -8.24499e-05
000040 9c 63 85 38 72 ca 7c 38 e2 a8 71 b8 36 91 22 38
       6.360488e-05 6.0270024e-05 -5.7616162e-05 3.8759048e-05
000050 69 c7 90 b8 67 26 11 b9 de bc 0e b8 95 4f c6 37
       -6.903598e-05 -0.00013842584 -3.4031335e-05 2.3640498e-05
000060 49 26 b5 b8 7c 91 aa b8 b3 e4 a1 38 99 33 d2 b8
       -8.637884e-05 -8.13333e-05 7.719677e-05 -0.00010023191
000070 92 74 fc 37 99 57 c6 b6 cb 81 71 38 18 2a 4e b8
       3.0095023e-05 -5.9110575e-06 5.7579757e-05 -4.915343e-05

encoder.1.bn2.weight f4 [32]
000000 d7 07 7b 3f 19 26 65 3f af c2 66 3f 10 2e 6f 3f
       0.9805884 0.8951126 0.90140814 0.9342966
000010 52 01 75 3f ed 75 77 3f 0f 8c 6e 3f 53 a4 72 3f
       0.9570514 0.96664315 0.9318246 0.9478199
000020 78 be 79 3f 79 0d 7d 3f 0a 94 79 3f d6 dd 77 3f
       0.9755626 0.9884868 0.97491515 0.9682287
000030 91 92 74 3f 7a e9 78 3f 4e 4d 77 3f d9 92 87 3f
       0.9553614 0.97231257 0.9660233 1.0591689
000040 74 35 76 3f dc 47 6d 3f ae 11 6e 3f bd 77 75 3f
       0.96175313 0.92687774 0.9299573 0.9588583
000050 ca 1b 81 3f cf ec 8a 3f 44 ee 72 3f 18 84 85 3f
       1.0086606 1.0853518 0.94894814 1.0430937
000060 95 d0 81 3f 92 a6 7e 3f de 55 66 3f 3a 1a 7f 3f
       1.0141779 0.99472916 0.8997477 0.99649394
000070 f1 e1 6d 3f f8 34 7d 3f 2a 69 79 3f 9f 15 74 3f
       0.92922884 0.9890895 0.9742609 0.9534549

encoder.1.bn2.bias f4 [32]
000000 30 e8 a4 bd ea 7d d5 bc f6 87 1c 3d 99 32 74 3d
       -0.08052099 -0.026061017 0.0382156 0.059618566
000010 22 81 5d bd ec 5b d8 bd 6c bd c3 bd 99 67 9c bd
       -0.05407823 -0.10564408 -0.09557614 -0.07636947
000020 3c 47 0b 3d c9 58 03 be e5 17 03 be fb 66 b8 bc
       0.03400348 -0.12826838 -0.12802084 -0.022510042
000030 ae 2a d3 bd 04 3f 51 bd bd 0a f4 3d 01 23 17 be
       -0.10310875 -0.051085487 0.11916111 -0.14759447
000040 ac 1e 36 3c 32 74 92 3d 67 31 48 bd 21 0d d6 bd
       0.011115711 0.07151069 -0.04887524 -0.10451723
000050 09 b7 bb bd f9 6e f1 bd a9 ad 7d 3d 50 4d 9e bd
       -0.091657706 -0.117887445 0.061933193 -0.0772959
000060 b0 1b c0 bd 20 c1 0d be 21 9a d7 3d 43 a6 93 bc
       -0.09380281 -0.13843203 0.10527445 -0.018023616
000070 e0 a8 ac bd ef 7e b7 bd 1d e7 00 be ab f8 4a bd
       -0.08430648 -0.089597575 -0.12588163 -0.049553555

encoder.1.bn2.running_mean f4 [32]
000000 ff 90 2b be 36 4c 0b bf 2f b2 8b bd c0 8a a5 3e
       -0.1675453 -0.54413164 -0.06821095 0.3233242
000010 73 08 c7 be e6 3c 8f be 11 c6 e3 bf 6a 07 79 3d
       -0.38873634 -0.2797615 -1.779482 0.060798086
000020 ef f1 39 3f 82 e8 02 3f 26 56 2a 3f 3e 01 38 3f
       0.72634786 0.5113603 0.665377 0.71876895
000030 14 60 6a 3f 6d 46 3c 3e 94 41 3c 3f 10 dd 1a 3e
       0.91552854 0.1838624 0.73537564 0.15123391
000040 ee f6 ca 3e ad 46 11 3e eb 46 78 3f 1d ab 85 bf
       0.39641517 0.14187117 0.9698321 -1.0442845
000050 1e e8 3b 3e ad f8 0d bf d6 b6 20 3f 8a 96 26 3e
       0.18350264 -0.55457574 0.62778986 0.16268364
000060 8a 31 42 3f 68 a3 e8 3c 32 f8 0a bf 7a 0c cd 3d
       0.7585684 0.02839823 -0.54284966 0.10012145
000070 19 ba 1f 3d bd aa 08 bf 5e 74 96 be 57 10 55 bf
       0.038995836 -0.53385526 -0.29385656 -0.8322806

encoder.1.bn2.running_var f4 [32]
000000 71 49 be 3e 7d cd a5 3e 0b 3b 87 3e 43 a7 df 3e
       0.37165406 0.32383338 0.26412234 0.43682298
000010 db b6 c0 3e 2f 2c 33 3e d6 a9 0d 3f ae 0d 0f 3f
       0.37639508 0.17497323 0.55337274 0.5588025
000020 5b 97 fe 3e 3c e9 73 3f 05 34 ca 3e 5b e9 5a 3e
       0.4972485 0.9527776 0.39492813 0.2137808
000030 21 32 6b 3f a9 0d aa 3e 21 3c 06 40 98 93 d7 3e
       0.91873366 0.33213547 2.09742 0.42104793
000040 1d c9 86 3e 10 8d 80 3e 24 f2 e7 3e e5 93 ba 3e
       0.26325312 0.25107622 0.45301926 0.3644096
000050 83 17 d2 3e 74 a9 7c 3e b3 42 77 3e 1a aa 19 3e
       0.41033563 0.24674016 0.24146537 0.15006295
000060 1d 83 3b 3e 87 6a 88 3e cd 8f 73 3e 45 f6 aa 3e
       0.18311734 0.26643774 0.23785324 0.33391014
000070 f8 a2 e5 3e f2 c0 80 3e 3f 71 d3 3e 2f 6c b0 3e
       0.44850898 0.25147206 0.41297337 0.34457538

encoder.1.conv2.weight f4 [32, 32, 2, 3]
000000 74 2b 0f bd 54 70 ad bd 53 09 f4 bb 55 ef 00 bd
       -0.03495355 -0.084686905 -0.0074474006 -0.031478245
000010 59 f9 d9 3d 47 27 9e 3d 62 c1 dd 3c 87 b1 09 3d
       0.106432624 0.07722335 0.027069751 0.03361657
000020 58 70 46 3d 79 99 73 3d ea 56 ff bc af 56 75 3c
       0.048446983 0.059472535 -0.031169374 0.01497428
000030 ac 9a 67 bd 85 88 90 3d 1c c7 df bc 7d bd 98 bc
       -0.05654399 0.07057289 -0.027316622 -0.018645043
000040 c0 32 3e 3d 2e a2 6e bd 5d 74 ef 3c cc 5c 27 bd
       0.046435118 -0.058260135 0.029230291 -0.040859982
000050 3a 70 59 3d 2f 3b aa bc 3c 58 43 bc eb 43 4e 3d
       0.053085543 -0.020780174 -0.011922892 0.05035774
000060 c1 42 25 3d 8c 82 71 3d 77 6e f8 3c 91 49 03 3d
       0.040346865 0.05896239 0.030326111 0.03205258
000070 e5 0a ab 3b 33 31 a8 bd a3 64 08 bd 2b 4e 4d 3b
       0.0052198046 -0.08212509 -0.0332991 0.003132711
000080 a5 f2 84 bc e8 f7 1a bc 1f 2c 06 3d 52 95 ac 3d
       -0.016228983 -0.0094585195 0.03275692 0.08426918
000090 81 44 b6 3d b1 a1 88 3d cd 4a 95 3d 68 fb 83 3d
       0.08899785 0.06671465 0.07289658 0.06444436
0000a0 d1 14 7a bd 61 0d ee bb 83 0b 9c bc 1f 6e 9d bc
       -0.06105501 -0.0072647785 -0.019048458 -0.019217549
0000b0 27 c5 93 3c 58 00 08 3d 8f ba e9 bb 3a 0d 12 3d
       0.018038346 0.033203453 -0.007132835 0.035657145
0000c0 4f d7 89 bc 77 9b 86 3d 4b 2a 95 3d a8 fd 17 bd
       -0.0168263 0.06572621 0.07283457 -0.03710714
0000d0 f1 3d 9e bb 65 a4 7d bd 82 f2 1d bd 48 54 72 bd
       -0.0048291613 -0.061924357 -0.03856135 -0.059162408
0000e0 08 d0 5a bc 48 71 43 bd 6d ef 81 3d 0a 33 82 3d
       -0.013355263 -0.047715455 0.06344495 0.06357391
0000f0 3e 0c 87 bb ef 09 ad bd e1 a4 8c bd b1 50 14 bd
       -0.0041213324 -0.0844916 -0.06867386 -0.036209766
000100 0f de 4b 3d 46 d3 91 3d f8 36 13 bd af 6d 88 bc
       0.04977232 0.07120375 -0.035941094 -0.016653864
000110 55 3e 2b bd fb 67 98 3d 74 2a a0 3d ae 8b 0c 3d
       -0.04180749 0.07441708 0.07820597 0.034312896
000120 da df 1b bd 54 f4 c1 bd 2e 8d ee bc 8e 0f 69 bc
       -0.03805528 -0.0947043 -0.029120054 -0.0142249
000130 b1 cc 97 bb 1e c7 b2 3c 8a e0 37 3c 91 5f a1 bd
       -0.0046325554 0.021823462 0.011222968 -0.07879556
000140 0c 58 38 bb 8b 76 28 bd 48 15 75 3d 32 bc 8b 3d
       -0.0028128652 -0.041128676 0.05983475 0.06823005
000150 9a b6 8f bd f2 cf 54 3d 2a 35 00 3d c3 15 54 bc
       -0.0701725 0.051956125 0.0313007 -0.0129446415
000160 bb 7a d3 3d 8f 48 cd 3d 6b c0 da 3c 97 c9 3e 3d
       0.10326143 0.10023605 0.02670308 0.04657897
000170 66 3f a5 bd c7 c3 0a 3d 95 7b f6 bc 31 75 9e bc
       -0.08068733 0.033878114 -0.030088225 -0.01934299
000180 03 11 c2 3d 40 f6 14 3d bb 11 ca bb 76 7f 8f 3b
       0.09475901 0.036367655 -0.0061666644 0.004379208
000190 fe f2 ee bc 59 b7 5c 3d 6a 33 e9 bc 88 be 05 3d
       -0.029168602 0.05388579 -0.028466899 0.032652408
0001a0 7a 04 d7 ba 64 bf 4c bd 1e bb 69 3c c4 95 91 3d
       -0.0016404532 -0.04998721 0.014265804 0.07108644
0001b0 b0 fa 73 bd 15 73 7d bd c0 72 7f bd d8 30 26 3d
       -0.059565246 -0.06187733 -0.062365294 0.040573925
0001c0 4a 4f 12 3c 56 62 2e 3c 31 d9 d1 3d 0f d7 69 3c
       0.008930037 0.010643562 0.10246504 0.014272465
0001d0 3f 4c a9 3c 31 59 96 3c ad c1 9f bb f1 65 6f 3c
       0.02066624 0.018353077 -0.004875383 0.014611707
0001e0 93 f4 97 bd 30 14 96 bd b6 e7 73 bb 73 a8 fe bc
       -0.07419696 -0.07328069 -0.0037216968 -0.031086182
0001f0 b7 c6 c2 3d 1e e1 7c 3c 21 e8 92 3d c0 6c 5f 3d
       0.09510558 0.0154345315 0.07173181 0.05454707
000200 10 a2 59 3d 5c f6 52 bb c9 17 a6 bc 1d 79 97 3b
       0.05313307 -0.0032190299 -0.020275014 0.004622592
000210 f2 8c 23 3d 93 b6 9a bb fa a3 5f 3d 30 17 d3 3c
       0.039929338 -0.0047214716 0.05459974 0.025767893
000220 0c e3 76 3d 0b 8c 97 bc b3 96 8a 3d 5f 97 09 3b
       0.060275123 -0.018499395 0.06767025 0.0020994765
000230 7d 3b 67 bc fe ac 17 3e 30 8b 32 3d 78 53 15 3d
       -0.014113304 0.14812085 0.04358977 0.036456555
000240 1f 89 89 bd f8 03 db bc 98 b0 ae 3c 1a 3b a7 3d
       -0.06715607 -0.02673529 0.02132444 0.081655696
000250 66 19 b8 3d c8 7d 12 3d 63 08 39 bd bd c7 0f bd
       0.08989219 0.035764486 -0.045174014 -0.035102595
000260 1a 29 9d 3d 78 0d 79 3d 21 da 78 bd 87 e5 df 3c
       0.07673855 0.06080386 -0.0607549 0.027331127
000270 7e 8a 81 bd db f1 6d 3c df 5b b3 3c 40 3c a4 bd
       -0.063252434 0.014522995 0.021894393 -0.08019304
000280 bd 33 99 bc b8 af bd 3c a7 bd 82 bd 4e f4 21 3b
       -0.018701429 0.023155078 -0.063838296 0.0024712267
000290 85 35 c6 3c 4d da 13 bd bd 74 6c bd dd 19 10 bd
       0.024195442 -0.03609686 -0.057728518 -0.035180915
0002a0 e0 dc 71 bd 6e 8a da 3c 6b f7 51 bd 9c 54 a0 bc
       -0.059048533 0.026677337 -0.051261347 -0.019571595
0002b0 6c f4 6a 3d ed 51 cf bc 13 03 50 bd 72 ff 22 3b
       0.057362005 -0.02530762 -0.05078418 0.0024871496
0002c0 76 0e 10 bd 8e a7 34 bd a5 52 4d bd b5 67 02 be
       -0.03517004 -0.044105105 -0.050127644 -0.12734874
0002d0 b3 f6 7d 3d 15 30 27 3d d8 c8 f3 bc 43 03 57 3d
       0.06200285 0.04081734 -0.029758856 0.052493345
0002e0 a2 c3 94 bd af 74 81 bd 88 a3 58 bd fc 96 d8 3c
       -0.072638765 -0.06321084 -0.05289033 0.026439182
0002f0 e3 89 df bb 8f ad ed 3d e6 e4 67 bd 2f f3 a5 bd
       -0.0068218573 0.11605369 -0.05661478 -0.08103024
000300 5e cd 66 3d 7f 46 1f 3d cb 76 86 bd 23 73 a3 3c
       0.056348197 0.03888559 -0.06565627 0.019952362
000310 64 06 76 bb 81 4c 41 bd c2 56 9c bc 97 eb c3 3c
       -0.003754043 -0.0471921 -0.019084338 0.023916049
000320 98 61 3d 3d 76 7f 05 bb 19 12 4c 3d ab 26 47 bc
       0.04623565 -0.0020370162 0.049821947 -0.012155215
000330 a0 5e 9b bc 19 f9 58 3c a5 52 19 3d 1f e9 f9 3c
       -0.01896602 0.013242983 0.03743233 0.030506669
000340 52 07 98 bc 2f ec bd bd 55 6d 6d bd 2c 93 23 3d
       -0.018558178 -0.09273564 -0.057965595 0.039935276
000350 6a 17 49 3d 19 46 9d bd 4f 54 b5 bc 35 43 99 bc
       0.049094595 -0.07679386 -0.022134928 -0.018708805
000360 92 3f a0 bc fd 90 26 bd c2 ad 5a bd c6 a3 68 3c
       -0.019561563 -0.040665615 -0.053388365 0.014199203
000370 a1 00 7e bd d5 50 77 3d 4a 71 9a bc fe e3 3e 3d
       -0.06201232 0.06037982 -0.018852849 0.04660415
000380 e0 53 ef bc 38 c3 b4 3c 20 d4 59 bc a9 ca ff bc
       -0.0292148 0.022065744 -0.013295203 -0.031224566
000390 d7 7b ba ba 69 31 1b bc c1 56 f0 bc 96 c9 b1 3c
       -0.0014227581 -0.0094722295 -0.029338242 0.021702569
0003a0 ea c3 af 3c 69 6d 07 bd 92 ec 8d 3b f6 b1 cc bc
       0.021455724 -0.033063326 0.00433118 -0.024987202
0003b0 1c 0a 7c bd 15 e6 ae bd 48 1f 9d bd 41 02 6c bd
       -0.06153308 -0.085399784 -0.07671982 -0.057619337
0003c0 47 70 2c 3d 3a 6f 91 3d 93 87 88 3d 46 c6 93 3d
       0.042099264 0.07101293 0.06666484 0.07215552
0003d0 37 a0 33 3d 25 fc be 3d cc 2e 3e 3d 3b ea 73 bd
       0.043853965 0.093254365 0.046431348 -0.05954955
0003e0 a0 1f 81 3d 57 e0 45 3d a7 79 30 bd e1 da 60 bc
       0.0630486 0.04830965 -0.043084767 -0.01372406
0003f0 ca ca a8 3d 9f e5 b8 3d c0 ff 56 3c 54 e0 1f 3d
       0.08241804 0.09028172 0.013122499 0.039032295

encoder.1.conv2.bias f4 [32]
000000 ee 15 7e 3d e7 14 e5 bc 4b 9e e9 3d a7 46 26 bd
       0.062032633 -0.027964069 0.11407145 -0.040594723
000010 d6 35 be bd 87 82 de 3c 87 f5 19 bd 33 d1 1a 3c
       -0.09287612 0.02716185 -0.03758767 0.009449291
000020 5b 81 31 3c 1c a6 14 bd c5 91 59 bd 3f a5 43 3d
       0.010834063 -0.036291227 -0.053117532 0.047765013
000030 02 b3 05 3e 98 77 03 bc 56 ef e9 bd d9 9a 18 be
       0.13056567 -0.008024119 -0.11422603 -0.1490282
000040 a8 79 25 3d f9 61 00 be ac 1b 21 bd 32 41 2c bd
       0.040399224 -0.12537374 -0.03933303 -0.042054363
000050 9c 93 71 bd 00 7f 4c bd a6 82 dd bd 89 e4 9f 3d
       -0.058978662 -0.049925804 -0.10815935 0.078072615
000060 4f 38 14 3d 5d 94 2f bd 62 fa da bd e9 1e 10 bd
       0.036186513 -0.0428661 -0.10692288 -0.03518573
000070 dc d8 ae bd 3e 4e 18 bc 58 dd 34 bd 5c 7f 81 3c
       -0.085374564 -0.009295998 -0.044156402 0.0158078
