ALL MODEL CHECKPOINTS/FAN_AASIST_ASV.pth (torch, 588586 bytes, 111 tensors)

pos_S f4 [1, 23, 64]
0.023858435 -0.014697353 0.008243935 -0.009630756 0.0020899612 -0.017984247 -0.00815498 -0.0011360302
-0.016956111 0.011969683 0.0146628525 0.001306535 0.020318469 -0.029389456 -0.017285982 0.008075947
-0.012808757 -0.011288642 -0.011898348 0.0075312145 0.011794228 -0.011652085 -0.01145766 -0.0068546887
0.009321348 0.0056614713 -0.015228049 0.0050446447 -0.0070425477 4.8491824e-05 -0.019169824 0.014338607
0.013458872 0.008574979 0.03156102 -0.012936248 -0.011303193 0.0054527204 -0.018242072 0.014472961
0.0051203 0.008866548 0.016949736 -0.0025563983 -0.013787296 -0.013836868 0.011539965 0.024214996
0.016055902 0.008170245 0.020498417 -0.0059080725 -0.0033369567 0.0043862234 -0.004830535 0.0023536533
-0.010221827 0.01358421 0.01758593 -0.01662113 0.025684388 0.008906931 -0.02110173 0.0063626887
0.06978571 -0.058203183 0.040190723 -0.029450927 -0.011938996 -0.058356337 -0.014031904 0.0076831807
-0.053555317 0.04588913 0.04559371 0.0100392075 0.11219213 -0.057602067 -0.1063689 0.055474795
-0.03580296 -0.05264293 -0.06776278 0.03805486 0.043654952 -0.04411027 -0.06846636 -0.03229032
0.032559834 0.02174745 -0.042991232 0.0012103558 -0.044306386 -0.008559838 -0.029140059 0.041388623
0.054073263 0.014703262 0.093004555 -0.05576172 -0.045517594 0.039606392 -0.056503795 0.05344991
0.010602097 0.040375758 0.065301634 -0.057950065 -0.042035952 -0.03894468 0.04289085 0.06342477
0.052497465 0.0543885 0.06574426 -0.02521291 -0.028888458 0.02444087 -0.0354172 0.0069043157
-0.055212643 0.020161016 0.06967224 -0.032610647 0.07272137 0.057526328 0.004878883 0.01762613
-0.065369844 -0.003289813 -0.003959619 -0.075441055 0.0049885665 -0.008423621 -0.007515171 0.0065028956
-0.010390817 0.0063216602 0.010926868 0.0077121975 0.009273402 0.029673109 -0.0066607865 0.048530065
0.010922057 -0.011425284 -0.02127572 0.0052428804 -0.00043473573 -0.014157925 -0.01538928 -0.0016677387
0.00021665343 0.005817311 -0.0011882448 -0.00015835268 0.0020505076 0.0021268956 -0.0007233256 -0.0013004389
0.009532852 0.008577499 -0.16842775 -0.020349037 -0.010369699 -0.011116313 -0.011777861 0.007212733
0.0020815611 0.0026235261 -0.0055477056 -0.009439072 -0.004838806 -0.0141804535 0.0052119074 0.009242787
0.006016486 -0.013302981 0.012748764 -0.0020329175 -0.014123408 0.0046542794 -0.0021224662 0.0022017309
-0.005492458 -0.0001042698 -0.010256234 0.0007233284 -0.0048729917 -0.0035122838 -0.016162924 -0.00038222753
0.004626774 -0.00043341535 -0.04074011 0.0067680385 0.025391394 0.09994921 -0.0039920546 0.004047181
-0.003637258 0.004577824 0.011400412 0.00251928 0.054494075 -0.024190292 -0.009915087 -0.18812521
-0.0019242933 -0.007619246 -0.005375677 0.004663321 0.006596538 -0.0049274624 -0.005695522 -0.0026990182
0.0020597759 -0.0013385253 -0.0047346074 0.0027105 0.006564318 0.0034950078 -0.0359131 0.009966312
0.006267798 0.010486382 -0.09302876 -0.037697334 0.0087302225 0.0073074857 -0.018691676 0.0057506016
-0.0026206495 0.0020159464 -0.0076153763 -0.0032977185 0.012701812 -0.0012573671 0.0064147525 0.02319426
-0.045913372 0.0022297197 -0.09870451 0.0042251837 -0.0067961537 -0.00063282286 -0.0044715954 0.00045919375
0.06768066 0.002042517 -0.104745515 0.018300315 0.0048310664 0.0025210336 -0.017520545 -0.0023239467
00000000: c472 c33c 2bcd 70bc 9211 073c 52ca 1dbc
00000010: bbf7 083b b353 93bc 779c 05bc d9e6 94ba
00000020: 8be7 8abc 7d1c 443c 763c 703c 0a40 ab3a
00000030: eb72 a63c 28c2 f0bc 559b 8dbc fa50 043c
00000040: d2db 51bc fff3 38bc 4af1 42bc 68c8 f63b
00000050: 943c 413c 63e8 3ebc e9b8 3bbc 4c9d e0bb
00000060: 91b8 183c dd83 b93b 117f 79bc 8c4d a53b
00000070: 2cc5 e6bb b363 4b38 090a 9dbc 7aec 6a3c
00000080: 9a82 5c3c 127e 0c3c 2146 013d 8ff2 53bc
00000090: 0731 39bc bcac b23b 6670 95bc 0020 6d3c
000000a0: 31c8 a73b ff44 113c 2cda 8a3c 3f89 27bb
000000b0: 1ce4 61bc 08b4 62bc 1f12 3d3c 875e c63c
000000c0: ab87 833c 7edc 053c 4cec a73c 8198 c1bb
000000d0: d8b0 5abb 4fba 8f3b 7749 9ebb c03f 1a3b
000000e0: 7379 27bc 4e90 5e3c 5e10 903c 0929 88bc
000000f0: 1168 d23c 60ee 113c 89dd acbc 1a7e d03b
00000100: cfeb 8e3d 7666 6ebd 079f 243d 1243 f1bc
00000110: c79b 43bc 0e07 6fbd 12e6 65bc 31c3 fb3b
00000120: d25c 5bbd 3ef6 3b3d 78c0 3a3d 7d7b 243c
00000130: fdc4 e53d 25f0 6bbd f0d7 d9bd 8a39 633d
00000140: 20a6 12bd 1da0 57bd 36c7 8abd 6adf 1b3d
00000150: 89cf 323d f8ac 34bd 1738 8cbd db42 04bd
00000160: 765d 053d b527 b23c 9317 30bd cda4 9e3a
00000170: 9d7a 35bd 903e 0cbc 22b7 eebc 1e87 293d
00000180: ed7b 5d3d f3e5 703c 2c79 be3d 6766 64bd
00000190: a870 3abd 503a 223d 8670 67bd 4bee 5a3d
000001a0: 6bb4 2d3c 0d61 253d ddbc 853d 0c5d 6dbd
000001b0: e42d 2cbd 7584 1fbd 51ae 2f3d d9e4 813d
000001c0: 9507 573d 7ac6 5e3d eda4 863d 4e8b cebc
000001d0: 7da7 ecbc 3838 c83c a011 11bd 993d e23b
000001e0: a726 62bd b728 a53c 52b0 8e3d be92 05bd
000001f0: f1ee 943d baa0 6b3d 09df 9f3b ac64 903c
00000200: a0e0 85bd e799 57bb b1bf 81bb d780 9abd
00000210: 2177 a33b 3a03 0abc d341 f6bb 3e16 d53b
00000220: 3f3e 2abc ee25 cf3b 9b06 333c 9ab6 fc3b
00000230: 78ef 173c 0515 f33c ba42 dabb 76c7 463d
00000240: 6df2 323c 1d31 3bbc 6b4a aebc 78cc ab3b
00000250: 3eed e3b9 a4f6 67bc 5223 7cbc 0698 daba
00000260: 762d 6339 249f be3b e1be 9bba 790b 26b9
00000270: cf61 063b 6363 0b3b 8f9d 3dba 7d73 aaba
00000280: ae2f 1c3c a388 0c3c 5378 2cbe 06b3 a6bc
00000290: ace5 29bc 3221 36bc eef7 40bc ca58 ec3b
000002a0: cd6a 083b 77ef 2b3b 87c9 b5bb 56a6 1abc
000002b0: d98e 9ebb 2255 68bc a6c8 aa3b 0f6f 173c
000002c0: f125 c53b bff4 59bc 31e0 503c b23a 05bb
000002d0: de65 67bc ed82 983b 1319 0bbb ea4a 103b
000002e0: 14fa b3bb 6cab dab8 c309 28bc bf9d 3d3a
000002f0: 9ead 9fbb 582e 66bb 1c68 84bc b665 c8b9
00000300: 329c 973b 063c e3b9 1adf 26bd 6cc6 dd3b
00000310: 9d01 d03c 2cb2 cc3d c8cf 82bb 379e 843b
00000320: 105f 6ebb 9201 963b cbc8 3a3c 811a 253b
00000330: 2e35 5f3d b82a c6bc e472 22bc e5a3 40be
00000340: 9238 fcba deaa f9bb 7226 b0bb c6ce 983b
00000350: c527 d83b 8d76 a1bb 80a1 babb 03e2 30bb
00000360: 4efd 063b 7571 afba c424 9bbb a5a2 313b
00000370: 7e19 d73b 800c 653b 9d19 13bd be49 233c
00000380: 1a62 cd3b 13cf 2b3c dd85 bebd 8568 1abd
00000390: 3509 0f3c a273 ef3b 491f 99bc 8b6f bc3b
000003a0: 34bf 2bbb f81d 043b 688a f9bb 891e 58bb
000003b0: 431b 503c 3dce a4ba d832 d23b e401 be3c
000003c0: a90f 3cbd 7d20 123b 9725 cabd 6973 8a3b
000003d0: 45b2 debb 06e4 25ba 7686 92bb f1bf f039
000003e0: 289c 8a3d c0db 053b d184 d6bd 8bea 953c
000003f0: ec4d 9e3b ed37 253b 3f87 8fbc 5b4d 18bb

master1 f4 [1, 1, 64]
-0.19353175 -0.41241294 -1.3440423 0.38877097 -0.85500115 0.042203665 -0.54857606 0.9068611
-0.6924935 -0.4478167 0.34222302 -1.2218575 -0.00029928933 0.033258624 -0.11201421 0.13149537
-0.014346619 -0.24847062 0.63062704 0.9994493 0.0063505257 0.735544 -1.5331912 -0.08809156
-0.00027368942 0.33622342 0.14280024 -0.21249053 -0.8041311 -0.025636716 0.18753429 1.1429996
-0.14601654 0.6506515 0.44867605 0.22958516 -0.907948 -0.43544763 -0.6968827 -0.1381513
-0.3150329 -0.19745556 -0.20777377 -0.93175733 0.2581265 0.5827247 1.0231909 -0.31272566
0.23893656 0.054301202 -0.12036716 -0.52276504 0.25493494 -0.6934508 -0.000115120725 0.10981937
-0.71617943 0.923655 0.18091205 0.0670389 0.551837 -0.8061356 -0.20732753 0.16332242
00000000: 302d 46be ca27 d3be 9409 acbf fd0c c73e
00000010: 5be1 5abf c0dd 2c3d 7b6f 0cbf 0d28 683f
00000020: 4147 31bf 3b48 e5be db37 af3e d465 9cbf
00000030: efe9 9cb9 323a 083d b567 e5bd b9a6 063e
00000040: 150e 6bbc 156f 7ebe c670 213f e9db 7f3f
00000050: 1218 d03b 9d4c 3c3f 9c3f c4bf 5969 b4bd
00000060: f97d 8fb9 7a25 ac3e 3a3a 123e 1e97 59be
00000070: 89db 4dbf 1704 d2bc fd08 403e d04d 923f
00000080: 5c85 15be 1991 263f deb8 e53e 5f18 6b3e
00000090: 486f 68bf fef2 debe e866 32bf 8977 0dbe
000000a0: fe4b a1be ca31 4abe a6c2 54be a687 6ebf
000000b0: 2829 843e 722d 153f ebf7 823f 941d a0be
000000c0: c9ab 743e f06a 5e3d 0f83 f6bd eed3 05bf
000000d0: d586 823e fe85 31bf f86c f1b8 fae8 e03d
000000e0: 8957 37bf a774 6c3f 0241 393e b14b 893d
000000f0: 3145 0d3f e75e 4ebf ab4d 54be fe3d 273e

master2 f4 [1, 1, 64]
-0.5058492 0.46706644 -1.2220604 0.18161713 -1.8518975 0.62009156 0.5556649 -1.7727716e-05
-0.46958718 0.018540695 -0.245691 0.17989023 0.6215698 0.091608465 -0.19058576 0.99318624
0.25873038 0.46025306 0.13402665 -0.5748107 0.14180434 -0.07401903 0.2852833 0.53446984
-0.6984428 0.09067975 -1.4216003 -0.49399787 0.27187386 -0.5664877 -0.480242 -0.08690668
-0.44151857 0.37391874 -2.2792509 0.0023160425 0.22839893 -0.7994623 0.19943234 -1.7079817
-0.61777836 0.17874788 -0.8195907 0.48799473 0.68258584 -0.18649203 0.04701635 0.21205795
-0.4431781 6.4886895e-05 -0.91653603 -0.40910098 0.5659767 0.3997266 0.4546286 0.018928137
-0.089366265 0.061410964 -0.7733226 -0.81688285 -0.27184534 0.1564938 0.10371449 0.5004762
00000000: 557f 01bf 5523 ef3e 7a6c 9cbf d7f9 393e
00000010: fa0a edbf 52be 1e3f 0e40 0e3f fbb5 94b7
00000020: bb6d f0be a8e2 973c 6c96 7bbe 2535 383e
00000030: 331f 1f3f 389d bb3d ea28 43be 7441 7e3f
00000040: 4f78 843e 4aa6 eb3e 483e 093e cb26 13bf
00000050: 2835 113e 4a97 97bd a710 923e 04d3 083f
00000060: 26cd 32bf 4eb6 b93d 00f7 b5bf 4aed fcbe
00000070: 0d33 8b3e 5705 11bf 48e2 f5be 21fc b1bd
00000080: b90e e2be 4772 bf3e 3fdf 11c0 bfc8 173b
00000090: 69e1 693e 90a9 4cbf fe37 4c3e 259f dabf
000000a0: b926 1ebf af09 373e b2d0 51bf 72da f93e
000000b0: f2bd 2e3f c4f7 3ebe 3794 403d b825 593e
000000c0: 3de8 e2be e313 8838 1ba2 6abf af75 d1be
000000d0: d9e3 103f f7a8 cc3e 14c5 e83e 2e0f 9b3c
000000e0: a905 b7bd 108a 7b3d 78f8 45bf 3c1f 51bf
000000f0: 502f 8bbe e93f 203e 4368 d43d 351f 003f

encoder.0.conv1.weight f4 [32, 1, 2, 3]
-0.31240016 -0.05432955 -0.14437325 -0.090124175 -0.307702 0.16213816 -0.35376358 -0.017437445
0.14753497 -0.11777166 0.24893302 0.06533086 0.18857338 0.26271537 -0.176841 0.13908072
-0.17359446 0.13083161 -0.21760496 0.18595225 0.08068027 -0.146881 -0.19368662 0.11633546
0.31701598 0.16728124 -0.07037288 -0.040287904 0.21174316 -0.3031872 0.12885214 -0.1470745
0.18891144 -0.12930962 0.037036244 0.1600579 0.26319498 -0.07698983 0.35106963 -0.3531781
-0.081770875 -0.40649617 0.056745738 0.14149944 -0.14272393 0.18446593 -0.052074082 -0.3314388
0.27897257 0.18617465 0.15395567 0.29642132 0.12378072 0.19570504 0.3649027 -0.061707366
-0.2840635 -0.18324915 -0.028838241 -0.02443496 -0.026198816 0.20805478 0.104900196 -0.3247458
-0.14823239 -0.12386195 0.2396004 -0.15033913 -0.173741 -0.06666264 -0.093910314 -0.07273513
-0.4106793 0.3499969 0.20015402 -0.19984536 -0.25783306 0.0015524705 0.24079369 -0.30367267
-0.14925034 0.19714767 -0.20475286 -0.0024625387 -0.32695493 0.3554818 0.19723246 -0.39244115
-0.24190979 0.12771428 0.05942547 0.1614188 -0.28019828 -0.19249845 0.136477 -0.29401097
-0.098412655 0.156897 0.17257081 0.04357252 0.14708963 0.1858167 -0.048879914 -0.1158524
0.2774009 0.37040856 0.18351065 -0.16867404 -0.23185135 -0.34340638 0.0009558626 -0.10832188
-0.037999045 0.00070885714 0.32227555 0.26901096 -0.054126956 -0.10281724 0.20257597 -0.014299346
-0.39905086 0.11910418 0.3807344 -0.31433865 -0.07811359 0.08927247 -0.30220005 -0.31389618
0.33502078 -0.13512887 0.24828735 0.04235784 0.10706914 -0.27475524 -0.08197498 0.25907707
0.1851034 -0.111313134 0.035939742 0.30956596 -0.36585158 0.24682824 -0.12573266 -0.07387291
0.18459019 -0.34902945 -0.07891208 0.37154806 0.12264761 -0.1599397 -0.0997458 0.29414412
0.13612753 0.26717985 -0.26560676 0.11698736 0.035221763 0.040812083 0.31514236 0.23015988
0.25633016 0.17422605 0.19067094 -0.02547735 -0.29908833 -0.25396034 -0.19177377 -0.16146654
0.1729604 0.11080046 -0.13356504 -0.31169268 0.3748605 0.27861872 0.1900576 0.396466
-0.22798832 -0.22832458 -0.23632507 -0.023971127 -0.32502303 0.35413337 0.027039677 0.2111588
-0.22251374 -0.040306095 0.030350437 -0.12888728 0.36005464 -0.20904358 0.1044968 -0.2960402
00000000: eaf2 9fbe aa88 5ebd 95d6 13be 0693 b8bd
00000010: 1e8b 9dbe 8c07 263e 8020 b5be f9d8 8ebc
00000020: 6813 173e 4532 f1bd 4ce8 7e3e 30cc 853d
00000030: 6119 413e a182 863e cf15 35be 2d6b 0e3e
00000040: bfc2 31be b9f8 053e d6d3 5ebe 446a 3e3e
00000050: b33b a53d f967 16be c955 46be 4941 ee3d
00000060: eb4f a23e c64b 2b3e a81f 90bd ee04 25bd
00000070: 33d3 583e 5a3b 9bbe d1f1 033e b39a 16be
00000080: 0072 413e be69 04be 51b3 173d 38e6 233e
00000090: 7ec1 863e d8ac 9dbd 66bf b33e c3d3 b4be
000000a0: 7d77 a7bd 4420 d0be 386e 683d 3be5 103e
000000b0: 3926 12be a3e4 3c3e a24b 55bd 59b2 a9be
000000c0: 7ed5 8e3e 91a4 3e3e 8ea6 1d3e 89c4 973e
000000d0: bf80 fd3d e766 483e 87d4 ba3e ddc0 7cbd
000000e0: c570 91be aaa5 3bbe 2d3e ecbc d32b c8bc
000000f0: e69e d6bc 500c 553e ead5 d63d 1545 a6be
00000100: 3bca 17be 56ab fdbd cf59 753e 80f2 19be
00000110: 29e9 31be 6c86 88bd 0d54 c0bd 28f6 94bd
00000120: 8f44 d2be cb32 b33e 2df5 4c3e 43a4 4cbe
00000130: b202 84be 447c cb3a 9f92 763e fc7a 9bbe
00000140: 15d5 18be 14e1 493e bcaa 51be 8b62 21bb
00000150: a366 a7be b601 b63e 4ef7 493e 0cee c8be
00000160: 33b7 77be 88c7 023e 1f68 733d f84a 253e
00000170: 2676 8fbe 501e 45be a0c0 0b3e 9b88 96be
00000180: 938c c9bd 9ba9 203e 67b6 303e 1979 323d
00000190: aa9e 163e bc46 3e3e 4e36 48bd 0644 edbd
000001a0: 7e07 8e3e 31a6 bd3e 37ea 3b3e e3b8 2cbe
000001b0: 716a 6dbe f6d2 afbe da92 7a3a ddd7 ddbd
000001c0: e3a4 1bbd 99d2 393a 4d01 a53e cebb 893e
000001d0: 3ab4 5dbd d891 d2bd 1370 4f3e ce47 6abc
000001e0: 6550 ccbe e4ec f33d 9fef c23e fff0 a0be
000001f0: 05fa 9fbd 7cd4 b63d f7b9 9abe 00b7 a0be
00000200: d887 ab3e 395f 0abe 0a3f 7e3e 6a7f 2d3d
00000210: 1147 db3d b8ac 8cbe 80e2 a7bd c0a5 843e
00000220: bf8b 3d3e 24f8 e3bd 8d35 133d 6e7f 9e3e
00000230: e650 bbbe 8bc0 7c3e 10c0 00be ae4a 97bd
00000240: 3605 3d3e fdb3 b2be a89c a1bd 8c3b be3e
00000250: ac2e fb3d 3cc7 23be 8747 ccbd 0f9a 963e
00000260: 0465 0b3e cccb 883e 9cfd 87be 1297 ef3d
00000270: b244 103d 922a 273d 575a a13e 08af 6b3e
00000280: b53d 833e 5068 323e 3e3f 433e e0b5 d0bc
00000290: 1b22 99be 1707 82be 5860 44be 7c57 25be
000002a0: 881c 313e 5aeb e23d 46c5 08be 2f96 9fbe
000002b0: b7ed bf3e 1da7 8e3e 769e 423e 97fd ca3e
000002c0: c575 69be ebcd 69be 33ff 71be 195f c4bc
000002d0: 6b69 a6be f850 b53e 5082 dd3c 033a 583e
000002e0: a4da 63be 0118 25bd 7ba1 f83c 07fb 03be
000002f0: 1559 b83e 850f 56be 6b02 d63d 9592 97be

encoder.0.conv1.bias f4 [32]
-1.1748289e-05 -6.977747e-05 -3.0113772e-05 0.000141837 3.251769e-05 -6.4627257e-06 -2.3935545e-05 3.678069e-05
-1.7983275e-05 5.359656e-05 1.091334e-05 6.120689e-05 8.942601e-05 -0.00013043186 -8.375138e-05 4.8472073e-05
2.474564e-05 -1.0634346e-05 4.5731515e-05 -5.2130858e-05 -4.599472e-06 -6.0476585e-05 8.3500636e-05 -5.143618e-05
0.00010764197 -6.7449832e-06 3.123404e-05 -7.8299556e-05 -5.2660933e-05 2.2788388e-06 -0.00027332554 0.00014141187
00000000: 841a 45b7 7e55 92b8 d59c fcb7 14ba 1439
00000010: 9b63 0838 64da d8b6 31c9 c8b7 f744 1a38
00000020: cada 96b7 decc 6038 7018 3737 335c 8038
00000030: 398a bb38 89c4 08b9 aea3 afb8 7e4e 4b38
00000040: db94 cf37 2b6a 32b7 d7cf 3f38 15a7 5ab8
00000050: 2a55 9ab6 3da8 7db8 101d af38 2dbd 57b8
00000060: d8bd e138 f752 e2b6 4c01 0338 c134 a4b8
00000070: 3fe0 5cb8 27ee 1836 224d 8fb9 f647 1439

encoder.0.bn2.weight f4 [32]
0.92363167 1.0250871 0.93968993 0.9482191 0.9140496 0.94875705 0.9625176 0.97277856
0.8828833 0.95956403 0.97384274 0.9317641 0.9634715 0.9638853 0.97111225 0.89264095
0.9234478 0.8808843 0.8253765 0.8866362 0.95196193 0.9873643 0.96224976 1.02115
0.9885727 0.94948304 0.8874502 0.8861148 0.93836516 0.95974886 1.1008079 0.95309657
00000000: 2073 6c3f 0e36 833f 858f 703f 7dbe 723f
00000010: 28ff 693f bee1 723f 8e67 763f 0408 793f
00000020: a404 623f fda5 753f c24d 793f 1888 6e3f
00000030: 11a6 763f 30c1 763f d09a 783f 1e84 643f
00000040: 1367 6c3f a281 613f e04b 533f 97fa 623f
00000050: c7b3 733f e8c3 7c3f 0056 763f 0bb5 823f
00000060: 1a13 7d3f 5211 733f f02f 633f 6bd8 623f
00000070: b338 703f 1ab2 753f 46e7 8c3f 23fe 733f

encoder.0.bn2.bias f4 [32]
-0.091201656 -0.1240245 -0.0044464157 -0.04442351 0.1178332 0.0032355383 0.03969498 0.047751743
0.09225981 -0.0507344 -0.061669245 0.015118275 -0.113495745 -0.037556726 -0.08400285 0.03037993
0.061173238 0.037503354 -0.03078931 0.08129976 -0.030368304 -0.08213332 0.11483162 0.04345633
0.11546178 -0.05213016 0.03740435 -0.053587876 0.18572207 -0.033660714 -0.037583884 0.06544392
00000000: efc7 babd 8f00 febd 3db3 91bb 6df5 35bd
00000010: 8852 f13d 530b 543b 3497 223d 5597 433d
00000020: b6f2 bc3d e0ce 4fbd e498 7cbd a4b2 773c
00000030: 7570 e8bd 15d5 19bd b009 acbd 55df f83c
00000040: ca90 7a3d 1e9d 193d dd39 fcbc 7d80 a63d
00000050: f3c6 f8bc 8435 a8bd d72c eb3d 44ff 313d
00000060: 3a77 ec3d 6f86 55bd 4e35 193d f67e 5bbd
00000070: ed2d 3e3e d1df 09bd 8ff1 19bd 7607 863d

encoder.0.bn2.running_mean f4 [32]
-0.10930204 -0.004025171 0.054240648 -0.02553533 0.041374054 0.034845646 -0.04455998 -0.02090773
0.18073729 -0.031702656 -0.045368865 -0.04646745 -0.04635117 -0.032620586 -0.04114218 -0.059897885
0.088913076 0.07280382 -0.10534463 0.091067135 -0.029607998 -0.01841396 0.012233423 0.0038495369
0.013340714 0.0656583 0.15395105 -0.10852019 0.07200312 -0.019018456 0.00038368287 -0.020215163
00000000: bfd9 dfbd 95e5 83bb 712b 5e3d 782f d1bc
00000010: d777 293d 4fba 0e3d 8784 36bd b046 abbc
00000020: 3213 393e a5da 01bd b4d4 39bd a754 3ebd
00000030: b9da 3dbd 2a9d 05bd b484 28bd 7c57 75bd
00000040: 0f18 b63d 2b1a 953d edbe d7bd 6881 ba3d
00000050: 798c f2bc dfd8 96bc b26e 483c 8348 7c3b
00000060: 0393 5a3c dc77 863d 58a5 1d3e d53f debd
00000070: 5f76 933d 98cc 9bbc 0b29 c939 459a a5bc

encoder.0.bn2.running_var f4 [32]
0.3979415 0.026754893 0.103121966 0.035155404 0.090313494 0.0437165 0.20667964 0.031964995
1.054636 0.047518 0.12753204 0.07788212 0.114791505 0.05117211 0.12228509 0.12811257
0.2621733 0.18293518 0.3777045 0.29088414 0.07430644 0.044466246 0.039071444 0.015776101
0.048228756 0.14605743 0.7720852 0.40228888 0.18277623 0.07166154 0.006953214 0.04973178
00000000: fdbe cb3e 142d db3c 9c31 d33d 1dff 0f3d
00000010: 48f6 b83d 1310 333d d4a3 533e baed 023d
00000020: 50fe 863f 3ca2 423d c297 023e a980 9f3d
00000030: cf17 eb3d d999 513d 9b70 fa3d f12f 033e
00000040: 943b 863e 5c53 3b3e 7c62 c13e c4ee 943e
00000050: fa2d 983d 3d22 363d 6109 203d e23c 813c
00000060: 848b 453d 1490 153e 60a7 453f cff8 cd3e
00000070: b129 3b3e 49c3 923d c9d7 e33b 8db3 4b3d

encoder.0.conv2.weight f4 [32, 32, 2, 3]
-0.05499106 0.055597227 0.00076666486 0.065133676 -0.068931185 -0.06625507 -0.01527694 -0.095947176
-0.0456885 0.029395256 0.027070617 -0.063988104 0.044055026 -0.016615093 0.04014455 -0.05817171
-0.08462256 -0.05914172 -0.04555082 -0.056440104 -0.005403308 -0.040180117 -0.04118649 -0.008261566
0.0069458634 -0.077744894 0.030743461 -0.06565819 0.034396186 0.05956786 -0.011950614 -0.005793272
0.040918905 -0.016392376 -0.07263133 0.0038727298 0.04660017 -0.05279633 -0.045125324 -0.030341486
0.0028583359 -0.042211123 -0.010165369 -0.048695497 -0.049566712 -0.034140497 -0.03320841 0.06526249
0.009997651 0.05097796 0.053761996 -0.0069517815 -0.044946592 0.02389474 0.00040532814 0.023993274
-0.030191083 0.05704894 0.00046220384 -0.022375174 -0.04495891 0.0497402 0.0073480587 0.016395565
0.017233934 -0.011971524 -0.030311298 -0.039905 -0.018978298 0.034093786 -0.00837507 -0.026296893
-0.04652693 0.019472236 0.050858434 0.045637622 -0.024044292 0.010798654 0.051669706 0.0017787978
-0.038502492 0.032270413 0.02008981 -0.026372401 0.0018750895 0.005189348 -0.02554867 -0.011911581
0.044325665 0.008317649 -0.060540404 0.034795757 -0.0022897667 0.030117031 -0.0029515934 0.027558869
0.0075178607 0.051923685 0.026170507 -0.04382308 0.02076866 -0.025796918 0.033579692 -0.039467283
-0.023899782 0.043507904 0.0017032122 0.0031946178 -0.0035480633 -0.0067253 -0.011247792 -0.06374869
0.062059417 0.061597224 -0.04905874 0.01039178 0.05084545 -0.0039405082 0.017426163 0.03660435
-0.0032655757 -0.022891397 -0.0455529 -0.04516889 -0.06523869 -0.012138395 -0.076184586 0.0018185987
0.030232796 -0.036646865 -0.033848498 0.016753905 -0.022829676 -0.00999208 -0.0061310283 0.002297646
-0.008165948 -0.023976967 -0.07328273 0.03827014 -0.117178954 -0.003206281 -0.06439022 -0.06990619
0.0105686905 -0.011204869 0.04438925 0.03322271 0.06599003 -0.0675155 -0.07490717 0.018525096
0.025327021 0.016756797 -0.062487364 0.043017235 -0.06880029 0.0074224616 -0.034046616 -0.040974405
0.04043681 0.04126055 0.02593405 0.024620807 -0.007599678 -0.043049928 0.016106466 0.058379013
0.021524232 -0.07410628 -0.028913636 0.009515731 -0.027161721 -0.054733437 -0.05191959 0.016583698
0.004132553 -0.07205005 -0.0036208704 0.009107324 -0.14152561 0.08130421 -0.09626456 0.040264398
-0.00012461837 0.014940093 0.002571815 0.03865575 0.0039362116 -0.03929751 -0.0051252046 -0.039432853
-0.04900941 -0.011959663 0.050915685 -0.013862288 -0.01733228 0.031051358 0.004381253 -0.03192002
-0.02096563 0.005246031 -0.04759687 0.052719496 0.008446667 -0.00060755725 0.067571715 -0.05589859
-0.026760012 0.04961265 -0.046767436 -0.040375996 0.0436743 -0.046657577 0.011767867 0.022617158
0.039287936 -0.040937513 -0.03672509 -0.05678338 -0.07363224 -0.033958852 0.01812269 -0.056106664
-0.06024536 0.0020442223 -0.038873598 -0.0048567834 0.045544498 0.097638726 0.019447643 -0.065795116
-0.059162125 -0.07487642 0.021295477 0.034297537 0.0434319 0.016724953 0.015244691 0.016224323
0.00050437596 -0.032654792 0.0045800917 0.0011733894 -0.028466038 0.039895084 -0.03452542 0.06102741
0.00083220727 0.05445529 0.05341555 0.040086854 0.05381655 -0.009627661 6.0904527e-05 -0.03342568
00000000: 4e3e 61bd ebb9 633d 02fa 483a ce64 853d
00000010: cb2b 8dbd bdb0 87bd 214c 7abc f47f c4bd
00000020: dd23 3bbd 52ce f03c 33c3 dd3c 320c 83bd
00000030: 0b73 343d 601c 88bc 9d6e 243d 7645 6ebd
00000040: 984e adbd 973e 72bd 7f93 3abd bd2d 67bd
00000050: 3c0e b1bb e893 24bd 2ab3 28bd 855b 07bc
00000060: 209a e33b b738 9fbd b6d9 fb3c cd77 86bd
00000070: 04e3 0c3d 6efd 733d 82cc 43bc 7dd5 bdbb
00000080: 959a 273d 4e49 86bc bcbf 94bd a0cd 7d3b
00000090: d2df 3e3d f740 58bd 55d5 38bd b58e f8bc
000000a0: eb52 3b3b 92e5 2cbd a68c 26bc ee74 47bd
000000b0: 7706 4bbd e8d6 0bbd 8b05 08bd 57a8 853d
000000c0: 30cd 233c 44ce 503d 8a35 5c3d c5cb e3bb
000000d0: eb19 38bd e7be c33c 3982 d439 8b8d c43c
000000e0: 4a53 f7bc 26ac 693d f353 f239 244c b7bc
000000f0: d626 38bd 61bc 4b3d fcc7 f03b fe4f 863c
00000100: 2e2e 8d3c 3624 44bc 664f f8bc 6d73 23bd
00000110: 6078 9bbc eda5 0b3d 9737 09bc 956c d7bc
00000120: 0693 3ebd 3d84 9f3c ef50 503d 84ee 3a3d
00000130: 89f8 c4bc d6ec 303c 9da3 533d 8d26 e93a
00000140: cab4 1dbd fb2d 043d 6393 a43c ef0a d8bc
00000150: 90c5 f53a 680b aa3b 724b d1bc cb28 43bc
00000160: d48e 353d c046 083c 37f9 77bd ff85 0e3d
00000170: e90f 16bb feb7 f63c 856f 41bb 23c3 e13c
00000180: 6358 f63b eead 543d 8863 d63c d47f 33bd
00000190: 0923 aa3c 0f54 d3bc dc8a 093d 72a8 21bd
000001a0: 7ac9 c3bc 5835 323d 513e df3a cb5c 513b
000001b0: a086 68bb e85f dcbb a948 38bc ac8e 82bd
000001c0: 0432 7e3d 5f4d 7c3d d1f1 48bd 4942 2a3c
000001d0: 5243 503d 611f 81bb 50c1 8e3c 71ee 153d
000001e0: 4503 56bb bd86 bbbc ad95 3abd 0403 39bd
000001f0: dd9b 85bd 1ee0 46bc aa06 9cbd 0c5e ee3a
00000200: c5aa f73c 061b 16bd b9a4 0abd 7c3f 893c
00000210: 4d05 bbbc d2b5 23bc cbe6 c8bb 1a94 163b
00000220: 78ca 05bc 586b c4bc 4215 96bd 26c1 1c3d
00000230: 85fb efbd 7820 52bb 05df 83bd fa2a 8fbd
00000240: 4d28 2d3c a094 37bc 81d1 353d 8914 083d
00000250: c825 873d 9145 8abd ee68 99bd f1c1 973c
00000260: 9d7a cf3c 8d45 893c c0f2 7fbd d732 303d
00000270: 2be7 8cbd 1f38 f33b 7774 0bbd c7d4 27bd
00000280: 12a1 253d d300 293d a573 d43c 93b1 c93c
00000290: b806 f9bb 1f55 30bd b5f1 833c d51e 6f3d
000002a0: 9653 b03c 09c5 97bd 4adc ecbc dee7 1b3c
000002b0: 4282 debc 2b30 60bd a3a9 54bd 89da 873c
000002c0: 5e6a 873b fa8e 93bd 204c 6dbb e336 153c
000002d0: 17ec 10be d282 a63d 5b26 c5bd 48ec 243d
000002e0: fdab 02b9 4bc7 743c e58b 283b 7e55 1e3d
000002f0: 56fb 803b 6df6 20bd 55f1 a7bb 5884 21bd
00000300: 17be 48bd 76f2 43bc f78c 503d a61e 63bc
00000310: 6dfc 8dbc 6b5f fe3c 9d90 8f3b 91be 02bd
00000320: 1dc0 abbc e6e6 ab3b f0f4 42bd 66f0 573d
00000330: e463 0a3c 7a44 1fba 0a63 8a3d ebf5 64bd
00000340: d037 dbbc a236 4b3d 368f 3fbd 4d61 25bd
00000350: d3e3 323d 041c 3fbd 03ce 403c 9e47 b93c
00000360: 63ec 203d 18ae 27bd 0c6d 16bd b195 68bd
00000370: 80cc 96bd 7018 0bbd 0976 943c 1ad0 65bd
00000380: d7c3 76bd 5cf8 053b ec39 1fbd a725 9fbb
00000390: de8c 3a3d d0f6 c73d aa50 9f3c 97bf 86bd
000003a0: fc53 72bd cf58 99bd da73 ae3c 937b 0c3d
000003b0: a6e5 313d c502 893c dec4 793c dfe8 843c
000003c0: 1938 043a 08c1 05bd 9814 963b 6acc 993a
000003d0: 9c31 e9bc 0769 233d 876a 0dbd e1f7 793d
000003e0: 7c28 5a3a 830c 5f3d 44ca 5a3d 1d32 243d
000003f0: be6e 5c3d 56bd 1dbc bd73 7f38 5ee9 08bd

encoder.0.conv2.bias f4 [32]
-0.047547225 0.033455525 -0.045442067 -0.078212164 -0.013102573 0.068187036 -0.055800624 0.05831702
-0.031506967 -0.046902824 -0.039376613 0.021427065 0.07977357 -0.10331405 -0.07124186 -0.036163405
-0.06483589 -0.07677149 -0.03696557 -0.07378884 0.015442992 -0.0072003775 -0.018261677 0.04197305
-0.13137847 -0.051794678 0.089377895 0.018873526 0.056604754 0.011156252 -0.1272798 0.019827759
00000000: e1c0 42bd a908 093d 7621 3abd b32d a0bd
00000010: 2dac 56bc a5a5 8b3d 328f 64bd d4dd 6e3d
00000020: 730d 01bd 2d1d 40bd 5f49 21bd d087 af3c
00000030: 5360 a33d 5196 d3bd 41e7 91bd 1420 14bd
00000040: aec8 84bd 5f3a 9dbd 3669 17bd 9a1e 97bd
00000050: 9a04 7d3c 25f1 ebbb 8399 95bc efeb 2b3d
00000060: 1488 06be a826 54bd c20b b73d a79c 9a3c
00000070: 63da 673d b6c8 363c a355 02be d36d a23c

encoder.0.conv_downsample.weight f4 [32, 1, 1, 3]
0.13058236 -0.03741741 -0.17620564 -0.17161398 0.27339602 -0.3121692 0.37745366 0.16204642
0.0914337 -0.20225662 -0.46927616 -0.39824107 -0.5585298 -0.35753167 -0.5306879 0.24578407
-0.49243084 -0.32863128 -0.4995122 0.39942425 0.19403514 0.046559766 -0.17689611 -0.01635265
0.47178066 0.14731245 0.29164356 0.07372301 -0.20841041 -0.15404356 -0.33248624 0.29756925
-0.39000544 -0.16246854 -0.19102259 0.27457395 -0.030980019 0.42341998 0.37920994 0.38618183
-0.19199742 -0.3801266 0.07953424 0.22059505 -0.31409818 -0.5089967 0.22256465 0.421201
0.04886326 0.1425134 -0.1942223 -0.581974 -0.41594583 -0.50342643 -0.5824603 -0.36990425
-0.40146816 -0.038171604 0.24009047 0.1131614 0.305809 0.26940766 0.027991416 0.2865631
0.277126 -0.5312027 0.410128 0.2754632 0.053208105 -0.31475368 -0.24623396 0.17691246
-0.27223462 -0.32455018 -0.46977088 0.1779023 0.065980345 0.42029473 0.03505748 0.38596213
0.3554268 -0.50914073 0.26870394 -0.29034752 0.354001 -0.2153963 -0.0123837115 0.5264564
-0.48025486 0.21802787 0.53123224 -0.41730422 0.09183936 -0.17506589 0.24173525 -0.29313642
00000000: 62b7 053e 0043 19bd 406f 34be 93bb 2fbe
00000010: 90fa 8b3e a4d4 9fbe 9b41 c13e 7fef 253e
00000020: 9741 bb3d 5c1c 4fbe f744 f0be 41e6 cbbe
00000030: cffb 0ebf 640e b7be 2adb 07bf d2ae 7b3e
00000040: e51f fcbe 5c42 a8be 10c0 ffbe 5681 cc3e
00000050: 26b1 463e 74b5 3e3d 4124 35be fef5 85bc
00000060: 3c8d f13e 13d9 163e 4e52 953e 17fc 963d
00000070: 8a69 55be 98bd 1dbe a33b aabe ff5a 983e
00000080: cbae c7be 275e 26be 6d9b 43be f594 8c3e
00000090: cfc9 fdbc 81ca d83e ce27 c23e a0b9 c53e
000000a0: f99a 44be f49f c2be d9e2 a23d abe3 613e
000000b0: 7ad1 a0be 9c4d 02bf fde7 633e a8a7 d73e
000000c0: d724 483d 08ef 113e 36e2 46be 40fc 14bf
000000d0: daf6 d4be 8ee0 00bf 1e1c 15bf 1764 bdbe
000000e0: 3c8d cdbe d459 1cbd 47da 753e 2ac1 e73d
000000f0: ff92 9c3e cdef 893e 414e e53c 66b8 923e
00000100: 76e3 8d3e e6fc 07bf 4cfc d13e 8309 8d3e
00000110: bef0 593d 6527 a1be c124 7cbe 8a28 353e
00000120: 5662 8bbe 712b a6be cf85 f0be 052c 363e
00000130: b420 873d df30 d73e 6f98 0f3d d49c c53e
00000140: 80fa b53e 0c57 02bf 9093 893e 6ea8 94be
00000150: 9e3f b53e d990 5cbe 0de5 4abc d9c5 063f
00000160: f7e3 f5be b342 5f3e d6fe 073f e6a8 d5be
00000170: 4616 bc3d 7944 33be 7289 773e fa15 96be

encoder.0.conv_downsample.bias f4 [32]
0.2133522 0.17672653 0.15202722 0.4418329 -0.44169387 0.5499694 0.5227339 0.53357464
-0.18951455 0.4114738 0.14794444 0.60784966 0.1773383 -0.54006 -0.05574756 0.13275683
0.14733398 -0.61271936 -0.40199298 0.16696288 -0.23271386 0.3947599 0.4290736 0.48944017
-0.7190296 0.04454628 -0.4506521 -0.31663713 -0.34419245 0.45326653 -0.16588359 -0.14210263
00000000: 0079 5a3e cdf7 343e 06ad 1b3e ec37 e23e
00000010: b325 e2be cbca 0c3f e4d1 053f 5998 083f
00000020: 1a10 42be b2ac d23e bf7e 173e 099c 1b3f
00000030: 2c98 353e 5f41 0abf 8e57 64bd 68f1 073e
00000040: b8de 163e 2ddb 1cbf 06d2 cdbe 51f8 2a3e
00000050: 8b4c 6ebe f81d ca3e 89af db3e e797 fa3e
00000060: 5312 38bf 2976 363d dfbb e6be 431e a2be
00000070: fe39 b0be 8d12 e83e 63dd 29be 5a83 11be

encoder.1.conv1.weight f4 [32, 32, 2, 3]
-0.037533253 -0.06941767 0.011886257 0.014165642 -0.06294162 -0.043359548 0.010908295 -0.02344819
0.045321606 0.066172116 0.05773296 -0.06930973 -0.040497664 0.042816628 -0.018330598 -0.053690743
0.0044661863 -0.015672548 -0.041927695 0.03136904 -0.063284464 0.009049307 -0.017243577 -0.051249698
0.04508316 0.10048578 0.064706065 -0.03859871 0.023951184 0.0008867894 -0.0073254076 -0.0031031738
-0.076335125 -0.033321857 -0.048647575 0.031417307 0.03295701 -0.05958918 -0.037464466 -0.0014419467
0.009018952 -0.0230572 -0.0047164704 -0.027307628 -0.044732247 -0.055157613 -0.044286076 -0.032165658
-0.0016904426 -0.0580136 0.06383182 0.017690878 0.0470655 0.03426235 -0.045589548 0.018681306
0.018105099 0.060151152 0.0124080805 -0.08995642 0.0206867 0.042628083 0.025834775 -0.028158698
0.009510933 -0.038814176 0.004252501 -0.048417874 -0.0072246473 -0.03763148 -0.006784676 0.010366848
-0.037320506 0.017225487 -0.0327695 -0.024179652 -0.06604663 0.024203321 0.035230294 -0.06574589
0.024197219 0.044256587 -0.025432106 -0.0069095246 -0.021259792 -0.041172426 0.049654663 -0.036053233
0.037331704 0.025076369 0.08937019 0.061708294 -0.004858541 0.011288553 -0.029237863 0.0040715495
0.0716144 -0.006194862 -0.055867072 0.029258255 0.040231887 -0.049935456 0.036024656 -0.046798065
0.03356191 0.06789042 -0.05627738 -0.07985562 -0.019230349 -0.04360722 0.023285368 -0.019971503
0.037703086 0.053914104 0.009951708 -0.035194363 0.024833458 0.06585356 0.078102514 -0.057546053
-0.061697785 -0.053255577 -0.023076035 0.024536086 0.07522182 -0.0018890387 -0.05368979 -0.015530043
-0.09674542 0.043747284 -0.07003516 -0.07574574 -0.06301271 0.055446163 -0.025751254 0.0006711101
-0.029976763 0.0059588323 0.008077561 0.012068577 0.029134871 0.0033649176 -0.0724523 -0.030086495
0.010044778 0.012256126 -0.05998641 -0.06500267 -0.041898932 -0.0073665767 0.059690572 0.08948899
0.013662716 -0.06313123 0.057015248 0.026764238 -0.06270706 0.07251842 0.020182366 -0.083545364
-0.024209034 -0.037828356 -0.053705037 0.058874987 0.044932924 -0.043572348 -0.05550208 -0.010747849
-0.06342494 -0.060858298 -0.08219511 -0.07919663 -0.04072615 0.03644649 0.04122886 0.017065901
0.021314923 0.079353176 0.024209647 -0.030940423 0.0045634666 -0.009264423 0.020572199 -0.030542202
0.0040668505 -0.0112502985 0.026456263 -0.04024679 0.03096264 -5.6984805e-05 -0.006075041 0.039934732
-0.04946311 -0.0051297415 0.014380757 0.0021535915 -3.1778698e-05 -0.016938176 0.048089728 -0.026262512
0.053699393 0.06334282 0.06895299 -0.003303714 -0.035084404 -0.015811987 -0.009166197 0.025238352
-0.040725432 -0.03647832 0.06583205 -0.012963794 0.037382644 -0.06383134 0.011198124 -0.06975861
0.09956102 0.097907625 0.10033047 -0.0028900418 -0.074253 0.037283916 -0.0127888145 -0.014759853
0.00288858 0.03151358 -0.027102748 -0.05795451 0.0032825875 0.009548803 0.057980668 0.05129174
-0.012166406 -0.03644425 0.00043991924 0.09708161 -0.048996102 -0.0028343338 -0.027176341 0.0031056674
0.021094332 0.009211714 0.03200501 -0.05586987 0.014995993 0.020968363 0.052486993 -0.059459332
-0.016834838 0.05491568 -0.05157772 -0.049626164 -0.059320636 0.0151776625 0.049358893 0.056347914
00000000: 78bc 19bd da2a 8ebd 93be 423c 0217 683c
00000010: 89e7 80bd c899 31bd b5b8 323c 6b16 c0bc
00000020: 26a3 393d 3f85 873d 6579 6c3d 42f2 8dbd
00000030: e1e0 25bd 7d60 2f3d 0d2a 96bc d3ea 5bbd
00000040: 1659 923b b763 80bc 60bc 2bbd d37c 003d
00000050: 499b 81bd 8b43 143c 6742 8dbc 34eb 51bd
00000060: 1fa9 383d 7dcb cd3d 9d84 843d ae19 1ebd
00000070: 4635 c43c 6e77 683a f909 f0bb 9e5e 4bbb
00000080: 9755 9cbd 807c 08bd ae42 47bd 6faf 003d
00000090: eefd 063d c913 74bd 5774 19bd b4ff bcba
000000a0: 3ac4 133c 74e2 bcbc 9f8c 9abb 3fb4 dfbc
000000b0: 2939 37bd f3ec 61bd 5165 35bd 23c0 03bd
000000c0: d791 ddba ab9f 6dbd 42ba 823d 76ec 903c
000000d0: c1c7 403d ae56 0c3d 1bbc 3abd 8a09 993c
000000e0: 2551 943c 0e61 763d 434b 4b3c 123b b8bd
000000f0: 2777 a93c c99a 2e3d 73a3 d33c 12ad e6bc
00000100: bfd3 1b3c 9dfb 1ebd 9058 8b3b d251 46bd
00000110: bcbc ecbb 7723 1abd fd51 debb b6d9 293c
00000120: 63dd 18bd 771c 8d3c 5039 06bd 6814 c6bc
00000130: 7543 87bd 0b46 c63c a44d 103d c8a5 86bd
00000140: 3f39 c63c 6546 353d fe56 d0bc 4b69 e2bb
00000150: 0429 aebc 6ba4 28bd b062 4b3d 8eac 13bd
00000160: 21e9 183d f56c cd3c b807 b73d d6c1 7c3d
00000170: 6534 9fbb 9ff3 383c 3e84 efbc a26a 853b
00000180: 92aa 923d 45fe cabb dfd4 64bd 02af ef3c
00000190: 31ca 243d 1f89 4cbd 978e 133d 54af 3fbd
000001a0: 3778 093d 220a 8b3d 1c83 66bd 588b a3bd
000001b0: f788 9dbc 7c9d 32bd f5c0 be3c 479b a3bc
000001c0: 8d6e 1a3d 09d5 5c3d 7d0c 233c f727 10bd
000001d0: 896f cb3c 3bde 863d 36f4 9f3d 69b5 6bbd
000001e0: d1b6 7cbd 8522 5abd f409 bdbc e7ff c83c
000001f0: e60d 9a3d 9f99 f7ba d3e9 5bbd b971 7ebc
00000200: 7622 c6bd 5a30 333d 986e 8fbd 9520 9bbd
00000210: cf0c 81bd 841b 633d 4bf4 d2bc 70ed 2f3a
00000220: d491 f5bc 4f42 c33b bf57 043c 48bb 453c
00000230: 41ac ee3c f385 5c3b df61 94bd f477 f6bc
00000240: da92 243c ebcd 483c 4fb4 75bd 1f20 85bd
00000250: 379e 2bbd 5363 f1bb 1a7e 743d 0146 b73d
00000260: 96d9 5f3c f24a 81bd d288 693d ad40 db3c
00000270: 8f6c 80bd 8a84 943d 7d55 a53c d519 abbd
00000280: 0652 c6bc e8f1 1abd d0f9 5bbd e626 713d
00000290: 960b 383d eb78 32bd 2656 63bd bf17 30bc
000002a0: efe4 81bd 8d46 79bd e955 a8bd d831 a2bd
000002b0: 77d0 26bd ea48 153d 98df 283d cacd 8b3c
000002c0: a29c ae3c eb83 a23d 4f53 c63c c576 fdbc
000002d0: 2289 953b cec9 17bc 0787 a83c a433 fabc
000002e0: 3743 853b 2c53 38bc ceba d83c d1d9 24bd
000002f0: 5da5 fd3c f802 6fb8 2311 c7bb 9a92 233d
00000300: d499 4abd 6417 a8bb 449d 6b3c 4523 0d3b
00000310: 1e4a 05b8 eec1 8abc bcf9 443d 7b24 d7bc
00000320: e5f3 5b3d e1b9 813d 3a37 8d3d 2083 58bb
00000330: aab4 0fbd 2488 81bc d12d 16bc a9c0 ce3c
00000340: b6cf 26bd 4a6a 15bd f4d2 863d 1866 54bc
00000350: 8b1e 193d 01ba 82bd 5678 373c 9add 8ebd
00000360: a6e6 cb3d cb83 c83d 107a cd3d db66 3dbb
00000370: f511 98bd 05b7 183d 2d88 51bc 4fd3 71bc
00000380: 554e 3d3b 6214 013d 9506 debc b561 6dbd
00000390: ae20 573b 9572 1c3c 237d 6d3d 4a17 523d
000003a0: 9b55 47bc 9146 15bd f6a4 e639 b9d2 c63d
000003b0: 23b0 48bd 3bc0 39bb eba0 debc 7488 4b3b
000003c0: 05ce ac3c bbec 163c af17 033d ced7 64bd
000003d0: c1b1 753c d8c5 ab3c 9afc 563d a18b 73bd
000003e0: 37e9 89bc 44ef 603d 2943 53bd ce44 4bbd
000003f0: 32fa 72bd bbab 783c 8d2c 4a3d 12cd 663d

encoder.1.conv1.bias f4 [32]
-6.5051436e-06 5.415518e-05 -9.034661e-06 -6.081895e-06 -2.794088e-05 4.272782e-06 -2.9685325e-05 -8.927281e-06
-7.13002e-06 -1.0273223e-05 1.2324389e-05 -3.2313394e-05 -2.4911877e-05 -1.8633578e-05 -3.4144905e-05 -1.3818594e-05
6.0196135e-06 -1.1714048e-05 -1.6759147e-06 4.9870123e-06 2.0479151e-06 2.6229178e-05 1.1074024e-05 -8.86453e-06
5.9481664e-07 -4.5454792e-07 3.1864413e-06 2.495098e-06 1.4554392e-05 -5.818897e-06 2.7515407e-05 2.490949e-05
00000000: c246 dab6 af24 6338 9393 17b7 1513 ccb6
00000010: 9562 eab7 eb5e 8f36 c004 f9b7 61c6 15b7
00000020: 683e efb6 285b 2cb7 d9c4 4e37 3e88 07b8
00000030: d9f9 d0b7 4e4f 9cb7 d036 0fb8 69d6 67b7
00000040: 16fc c936 7487 44b7 feef e0b5 1c56 a736
00000050: ea6e 0936 bb06 dc37 92ca 3937 deb8 14b7
00000060: 7dab 1f35 9708 f4b4 a5d6 5536 7571 2736
00000070: a32e 7437 f23f c3b6 e3d0 e637 b9f4 d037

encoder.1.bn2.weight f4 [32]
0.9526361 0.9892941 0.9555916 0.9934109 0.9940137 0.91061014 0.9433801 0.9215926
0.88398296 0.9540486 0.85234505 0.8803615 0.91582644 0.9336957 1.0098543 0.9816217
0.9510976 0.9539225 0.85031587 0.98153615 0.893784 0.9236846 1.024696 0.97348934
1.0289341 0.9756267 0.93481135 0.9590729 0.93149704 1.0122323 0.948274 0.9240283
00000000: f6df 733f 6142 7d3f a7a1 743f 2d50 7e3f
00000010: af77 7e3f bf1d 693f 5c81 713f 7eed 6b3f
00000020: b54c 623f 873c 743f 4933 5a3f 5f5f 613f
00000030: 9a73 6a3f ae06 6f3f e842 813f 8f4b 7b3f
00000040: 227b 733f 4434 743f 4dae 593f f445 7b3f
00000050: 07cf 643f 9876 6c3f 3d29 833f 9936 793f
00000060: 1db4 833f acc2 793f cc4f 6f3f cd85 753f
00000070: 9776 6e3f d490 813f 16c2 723f 1e8d 6c3f

encoder.1.bn2.bias f4 [32]
-0.017653203 -0.114141494 0.0017955746 0.059540633 -0.04599816 0.019321611 -0.009341874 -0.08513048
0.10498828 -0.05933641 0.077096164 -0.086575985 -0.100091524 0.25388598 0.0744585 -0.11358153
-0.05271972 -0.13257855 -0.044847302 -0.01598526 0.171771 -0.020343 -0.08504403 0.021864323
-0.07595946 -0.07590614 0.1870321 -0.05219459 -0.035378788 0.0047844797 -0.10360521 0.019698147
00000000: 739d 90bc 04c3 e9bd 7c59 eb3a e1e0 733d
00000010: 9168 3cbd 5b48 9e3c a90e 19bc e458 aebd
00000020: 1804 d73d bc0a 73bd 98e4 9d3d c04e b1bd
00000030: c9fc ccbd 58fd 813e b37d 983d 6f9d e8bd
00000040: a2f0 57bd acc2 07be ceb1 37bd 85f3 82bc
00000050: bde4 2f3e 5da6 a6bc 902b aebd cf1c b33c
00000060: a290 9bbd ae74 9bbd 5885 3f3e ffc9 55bd
00000070: 59e9 10bd 20c7 9c3b f82e d4bd 025e a13c

encoder.1.bn2.running_mean f4 [32]
-0.51732194 -0.12835558 -0.15106532 0.42387518 -0.054081865 0.6767967 -0.80847126 -0.17020836
0.6544231 -0.67152303 0.22445099 0.38608083 0.3850927 0.44495866 0.34569433 0.0934543
-0.21071465 -0.50968564 -0.0991846 0.4427826 0.40900934 -0.9054827 -0.1480115 0.25632298
0.73626906 0.09034282 0.850298 0.66243684 -0.4692658 -0.18992905 -0.6752935 0.1945691
00000000: 366f 04bf a56f 03be deb0 1abe 2b06 d93e
00000010: f284 5dbd 8c42 2d3f f9f7 4ebf 1a4b 2ebe
00000020: 4688 273f efe8 2bbf 7bd6 653e 63ac c53e
00000030: df2a c53e 9fd1 e33e d9fe b03e f864 bf3d
00000040: 95c5 57be c27a 02bf 4c21 cbbd 67b4 e23e
00000050: ac69 d13e b7cd 67bf 5490 17be c43c 833e
00000060: 217c 3c3f a805 b93d 21ad 593f 7695 293f
00000070: 9b43 f0be c37c 42be 09e0 2cbf 1f3d 473e

encoder.1.bn2.running_var f4 [32]
0.35099718 0.2101979 0.6932371 0.7309113 0.13508636 0.29706296 0.9019334 0.45108727
0.816957 1.1929816 0.34251973 0.82104206 0.38381764 0.31400883 0.46420103 0.4167872
1.0267456 0.434526 0.4496242 0.66526717 0.16766186 0.21966606 0.44362065 0.16712771
0.48752055 0.60478574 0.71329 1.4740663 0.5083201 0.30178797 1.0642623 0.14977239
00000000: e7b5 b33e 1e3e 573e fd77 313f 011d 3b3f
00000010: 1454 0a3e a318 983e 1be5 663f e9f4 e63e
00000020: 1824 513f 9fb3 983f bf5e af3e d02f 523f
00000030: bf83 c43e c4c5 a03e c2ab ed3e 2265 d53e
00000040: 666c 833f 317a de3e 2535 e63e f34e 2a3f
00000050: 8daf 2b3e 24f0 603e 3f22 e33e 8723 2b3e
00000060: 4b9c f93e 3dd3 1a3f 2c9a 363f 34ae bc3f
00000070: 4421 023f f483 9a3e bf39 883f ef5d 193e

encoder.1.conv2.weight f4 [32, 32, 2, 3]
-0.06698806 -0.05180891 0.04783629 -0.064164296 0.048629753 0.0324867 -0.0025717213 0.03735205
0.087663636 0.00082596124 -0.05958651 0.032092027 -0.02110412 0.07819487 -0.016451046 0.023160722
0.07338602 -0.04341123 0.0032128934 -0.052879613 0.045667067 -0.043562602 -0.025363484 0.04943886
-0.04483502 0.024304772 0.016079905 -0.011419572 0.0122657465 -0.033166505 -0.058115374 -0.02701958
-0.04533568 -0.06503265 -0.04031618 0.006390452 -0.003188656 -0.00802484 0.06216561 0.024346398
-0.07898763 0.013474318 0.012810236 0.031775232 0.0893077 0.042248715 -0.016601818 0.0151658915
-0.055678755 -0.0147959795 -0.0042572934 -0.0504684 -0.026159514 -0.07171409 -0.030768337 -0.018959578
0.011055391 -0.046878714 0.09769979 0.078229964 0.058100514 -0.044301294 -0.05278259 -0.017447881
0.028168641 -0.0020515842 -0.0010091026 0.026747374 0.039007258 0.06140802 0.00146423 -0.02727152
-0.004747058 -0.052652042 -0.0027552075 -0.009169011 -0.015533817 0.02301786 0.04649316 -0.018423736
0.015687324 -0.053831868 0.051702645 0.016324999 -0.096063875 0.026496684 0.009468716 -0.040731885
0.071342975 0.07135736 0.015486469 0.043070998 -0.047432717 0.03335586 -0.042809203 -0.025141371
0.07668033 0.0077733896 -0.019568464 0.034833234 -0.0427307 0.022450875 -0.0445409 0.021857798
-0.02986023 -0.034322213 0.014407306 0.068527974 -0.037042435 -0.020704927 -0.028523404 0.021810686
-0.0015252626 0.023017185 0.053346157 -0.027262488 -0.06712076 -0.03457009 -0.014935979 -0.012477173
-0.058244266 -0.04002062 0.013505725 -0.03445336 0.066453226 -0.03761164 0.04716137 0.013632532
-0.00623581 0.05034888 0.03949083 0.025630739 0.0014528888 -0.014356582 0.050048325 -0.006140653
0.04747236 -0.028797591 0.06588126 0.010306648 -0.0039016714 0.05693573 -0.0698083 -0.12487721
-0.05142924 0.02917587 0.036192525 0.060327556 0.05829912 -0.017852703 -0.043343287 -0.027350703
0.04416239 0.049135834 -0.031474657 0.030863853 -0.07663753 0.011195693 0.012792806 -0.055467315
-0.0169164 0.020420238 -0.043000493 -0.0005699494 0.026766255 -0.052011166 -0.06283659 -0.010816436
-0.044573896 0.0463864 -0.006611193 -0.00542599 0.07066209 -0.009062539 -0.09831573 0.0024632805
-0.0044955947 -0.045379803 0.011842181 -0.048578233 0.046525333 0.04003738 -0.04008265 0.08410066
-0.024577945 -0.03618383 -0.06873646 0.0096998485 -0.028911402 0.08217575 -0.05171726 -0.07108368
0.04594696 0.05941489 -0.03392403 0.018891785 0.018359203 -0.014552543 0.013416685 0.032322124
0.05601454 0.0032303492 0.03444907 -0.0067432937 -0.036661252 -0.0008173772 0.06807521 0.06650176
0.01868546 -0.05463195 -0.08115066 0.033983003 0.06533449 -0.051318426 -0.002378138 0.008055203
-0.026691874 -0.045238927 -0.008065856 0.02190665 -0.056653623 0.06383027 -0.036095895 0.010366132
-0.075040124 0.017125301 -0.0030433272 -0.01705354 0.017216645 -0.009077509 -0.03635886 0.06949366
0.04582996 -0.02897506 0.00309521 -0.026309546 -0.067493476 -0.056465566 -0.063802294 -0.045647267
0.01736074 0.045566257 0.043699436 -6.1934676e-05 -0.028585931 0.017929617 0.051989973 -0.05044996
0.06553067 0.05220344 -0.027655602 -0.009300553 0.068564594 0.0719161 -0.032056514 0.045933425
00000000: 0931 89bd 9435 54bd fcef 433d 9268 83bd
00000010: fe2f 473d c610 053d 538a 28bb 77fe 183d
00000020: fe88 b33d 5285 583a fc10 74bd ee72 033d
00000030: 8ce2 acbc a224 a03d 58c4 86bc 8ebb bd3c
00000040: 694b 963d f9cf 31bd 688f 523b 4b98 58bd
00000050: 640d 3b3d b36e 32bd 15c7 cfbc 6780 4a3d
00000060: eda4 37bd cd1a c73c 01ba 833c 2819 3bbc
00000070: 45f6 483c 9ad9 07bd 630a 6ebd 2b58 ddbc
00000080: e8b1 39bd d72f 85bd 9422 25bd ff66 d13b
00000090: c5f8 50bb 9e7a 03bc 5ea1 7e3d 1972 c73c
000000a0: 44c4 a1bd 63c3 5c3c 06e2 513c bf26 023d
000000b0: f5e6 b63d fd0c 2d3d 8900 88bc 5c7a 783c
000000c0: 680f 64bd d66a 72bc c480 8bbb f4b7 4ebd
000000d0: 7a4c d6bc d6de 92bd e10d fcbc 1e51 9bbc
000000e0: ac21 353c e503 40bd d416 c83d 0837 a03d
000000f0: cefa 6d3d 4675 35bd 8f32 58bd dcee 8ebc
00000100: ecc1 e63c df73 06bb dd43 84ba 4f1d db3c
00000110: 13c6 1f3d fa86 7b3d 68eb bf3a 8668 dfbc
00000120: 358d 9bbb aba9 57bd b690 34bb 9f39 16bc
00000130: 8d81 7ebc f38f bc3c 9d6f 3e3d 60ed 96bc
00000140: b482 803c ce7e 5cbd 27c6 533d 01bc 853c
00000150: 23bd c4bd 930f d93c ac22 1b3c 7ad6 26bd
00000160: 441c 923d cf23 923d f5ba 7d3c 376b 303d
00000170: cf48 42bd 27a0 083d b458 2fbd 47f5 cdbc
00000180: 940a 9d3d ebb7 fe3b 0b4e a0bc 4bad 0e3d
00000190: 6306 2fbd e6ea b73c 8570 36bd 200f b33c
000001a0: 719d f4bc 7395 0cbd 9f0c 6c3c 6558 8c3d
000001b0: cfb9 17bd 619d a9bc eaa9 e9bc 53ac b23c
000001c0: 52eb c7ba 898e bc3c 8081 5a3d 9555 dfbc
000001d0: 9c76 89bd 5e99 0dbd 09b6 74bc 0e6d 4cbc
000001e0: 8a91 6ebd a9ec 23bd 1e47 5d3c f71e 0dbd
000001f0: a118 883d aa0e 1abd 482c 413d fc5a 5f3c
00000200: c455 ccbb a13a 4e3d 23c1 213d 8ef7 d13c
00000210: dc6e be3a df37 6bbc 79ff 4c3d 8837 c9bb
00000220: 6172 423d ede8 ebbc c1ec 863d 37dd 283c
00000230: 2fb3 7fbb 7135 693d a7f7 8ebd 9fbf ffbd
00000240: 77a7 52bd 3c02 ef3c 9d3e 143d 071a 773d
00000250: 0fcb 6e3d d53f 92bc bb88 31bd 950e e0bc
00000260: 9fe3 343d a842 493d 92eb 00bd 31d6 fc3c
00000270: 23f4 9cbd 246e 373c eb98 513c b231 63bd
00000280: 4394 8abc 5848 a73c 4921 30bd a868 15ba
00000290: e844 db3c a909 55bd 78b0 80bd 6c37 31bc
000002a0: 1e93 36bd aaff 3d3d b5a2 d8bb 81cc b1bb
000002b0: 49b7 903d 0b7b 14bc c259 c9bd fd6e 213b
000002c0: c84f 93bb 2ce0 39bd b505 423c f8f9 46bd
000002d0: 5991 3e3d 3cfe 233d b42d 24bd f83c ac3d
000002e0: b057 c9bc 7f35 14bd b3c5 8cbd 1dec 1e3c
000002f0: 9bd7 ecbc c24b a83d 7ad5 53bd 5294 91bd
00000300: e132 3c3d 075d 733d ecf3 0abd f2c2 9a3c
00000310: 0a66 963c ca6d 6ebc a8d1 5b3c 3464 043d
00000320: 816f 653d 44b4 533b 781a 0d3d d9f6 dcbb
00000330: 1c2a 16bd 4145 56ba 046b 8b3d 1332 883d
00000340: 4012 993c c0c5 5fbd 5132 a6bd c331 0b3d
00000350: 17ce 853d 4533 52bd 89da 1bbb f8f9 033c
00000360: eba8 dabc 744c 39bd a726 04bc 9375 b33c
00000370: a10d 68bd 72b9 823d 4ad9 13bd b5d6 293c
00000380: a3ae 99bd 5c4a 8c3c 8f72 47bb deb3 8bbc
00000390: ec09 8d3c d5b9 14bc 07ed 14bd b152 8e3d
000003a0: 32b8 3b3d 1b5d edbc 02d9 4a3b 1e87 d7bc
000003b0: 053a 8abd 7048 67bd c7aa 82bd a1f8 3abd
000003c0: 1c38 8e3c afa3 3a3d 2efe 323d ede2 81b8
000003d0: 0b2d eabc 22e1 923c 70f3 543d 9ea4 4ebd
000003e0: f234 863d 46d3 553d 008e e2bc 5961 18bc
000003f0: 986b 8c3d c048 933d b14d 03bd b024 3c3d

encoder.1.conv2.bias f4 [32]
0.0178591 -0.082110934 0.019262612 0.018868808 -0.094992355 0.07550521 0.0008849756 -0.03632315
0.049215294 -0.020672204 0.008904425 0.03804425 0.09498918 -0.019222451 -0.088931106 -0.08595561
-0.061856743 -0.20044523 -0.09882541 0.025381083 -0.047487523 -0.09054504 0.06674741 0.04397679
-0.04548775 -0.02260525 0.05907357 -0.044615734 -0.08689932 -0.068071626 -0.06902378 -0.0073052812
00000000: 3f4d 923c c729 a8bd a0cc 9d3c c292 9a3c
00000010: 5a8b c2bd 7aa2 9a3d b5fd 673a 95c7 14bd
00000020: fa95 493d c158 a9bc dee3 113c 4ad4 1b3d
00000030: b089 c23d 6778 9dbc 8321 b6bd 7f09 b0bd
00000040: 7f5d 7dbd 8441 4dbe fa64 cabd fdeb cf3c
00000050: 4782 42bd ae6f b9bd deb2 883d 0221 343d
00000060: 5d51 3abd a52e b9bc 21f7 713d fdbe 36bd
00000070: 45f8 b1bd 2369 8bbd 575c 8dbd 2461 efbb
